model_weights/checkpoint_transformer2_ce.pt (torch, 669922 bytes, 16 tensors)

embedding.weight f4 [38412, 4]
000000 a3 b8 8b 3d 6d 91 15 3e 48 8c 17 be a3 35 6a 3c
       0.06822326 0.14606257 -0.14799607 0.014295015
000010 bd d1 76 be 18 01 56 3e 1b 76 06 40 45 2d 14 bf
       -0.24103446 0.20898855 2.1009586 -0.57881576
000020 e2 0c 3c bf 88 2a 11 3f 9e 50 43 be a5 ff 0f bf
       -0.7345716 0.5670552 -0.19073722 -0.5624946
000030 de 56 ad be 11 8d 3b 3f 19 6e 7e 3f 2e 9f 84 bf
       -0.33855337 0.73262125 0.99386746 -1.0361078
000040 8f 14 a8 be 13 11 88 3f 69 4f 82 bf 3d 68 1c 3f
       -0.32828185 1.0630211 -1.0180484 0.61096555
000050 7e f2 2f 3f 2a 4c 0b 3d bb 2a f5 be b9 bd 74 be
       0.6872939 0.034008183 -0.47884163 -0.23900498
000060 be dc e7 bf 94 01 ad bf 74 75 74 bf fc 31 27 bd
       -1.811424 -1.3516107 -0.9549172 -0.040819153
000070 c3 86 86 3e 04 5f 28 3f 7b 2f 9d 3e 70 cf b0 bf
       0.2627469 0.6576998 0.30700287 -1.3813305
000080 a4 aa a0 3f c4 c9 40 3d 5d a4 73 3e d7 a3 96 bf
       1.2552075 0.04706742 0.23793168 -1.176875
000090 c4 58 69 3d 9e 95 bd bc 0b 3d 76 bf af c0 83 bf
       0.05696942 -0.023142632 -0.96186894 -1.0293177
0000a0 64 38 02 c0 4f 54 4b 40 9c e4 01 40 c1 c7 24 be
       -2.0346918 3.1770208 2.0295782 -0.16091825
0000b0 c8 4a ab bf d6 d9 f4 bf 17 4b 91 bf 5c 22 88 bf
       -1.3382196 -1.9128978 -1.1351041 -1.0635486
0000c0 62 52 99 3c 79 3e 9e 3f 59 98 d3 3f 1f b5 f5 3e
       0.018716041 1.2362815 1.6530868 0.47989747
0000d0 bb 5a 03 3f 72 b9 95 3e 20 d9 e2 be bb bc 9e 3f
       0.5131032 0.29243046 -0.44306278 1.2401346
0000e0 b4 9c bb 3e d8 4a 3d 3f 5f f3 16 bf ad f1 15 bf
       0.36642992 0.7394233 -0.58965105 -0.5857189
0000f0 9e 8c 53 3f c0 a3 31 3e 0b bb 50 3e 8e e5 73 bf
       0.8263644 0.17347622 0.20383851 -0.9527215
000100 30 2b d1 3e ca 94 2b 3f 18 96 a5 bf c0 c7 0c 3f
       0.40853262 0.6702391 -1.293643 0.54992294
000110 2f 50 b3 bf 62 b2 01 bf a0 82 09 bf f0 e0 9e be
       -1.4008845 -0.50662816 -0.5371494 -0.3103099
000120 67 4e ee 3e 34 ee d1 bf e2 43 50 3e c7 61 55 be
       0.4654419 -1.6400819 0.20338395 -0.2083808
000130 5f 4d a1 be 6e f0 10 bf ce 59 24 bf 8d df ed be
       -0.31504342 -0.56616867 -0.6419953 -0.46459618
000140 18 66 b3 bc 79 9b 45 bf 37 58 71 bf 8d 64 98 bf
       -0.021899268 -0.7719036 -0.9427523 -1.1905686
000150 db 3d 14 bf a9 db 9a 3e f7 2f 23 3f 46 fc 22 bf
       -0.57906884 0.30245712 0.63745064 -0.6366619
000160 ba 14 5a 3d 36 62 b3 3e e3 dd d1 be 38 f5 09 3d
       0.053242423 0.35035866 -0.409896 0.033681124
000170 bf a4 26 be 54 d9 39 bf ae 53 83 bc a8 7d 40 be
       -0.16273783 -0.7259724 -0.016031113 -0.18797934
000180 11 8e 81 3f 15 f3 15 3f da f4 0c c0 01 ad 8f 3f
       1.012148 0.5857404 -2.2024446 1.1224672
000190 a1 9b 6b 3e 92 81 21 bf ba b9 96 bf 40 7e 00 bf
       0.23008586 -0.63088334 -1.1775429 -0.5019264
0001a0 82 67 4b bf 11 c7 92 3f c0 9f a8 be 46 0f d4 bd
       -0.79454815 1.1467 -0.3293438 -0.10354476
0001b0 0d 45 a8 3c ed 85 6a 3f 12 66 aa 3e 77 4d 78 3e
       0.020540738 0.91610605 0.33280998 0.242483
0001c0 d0 8e 93 be e1 29 c3 3e eb e0 28 3c 11 db d7 bf
       -0.28819895 0.3811789 0.010307531 -1.6863729
0001d0 28 28 7a bf 58 4b 3a 3f ab a3 44 3f 29 f0 5f 3e
       -0.97717524 0.72771215 0.7681224 0.21868958
0001e0 3d 0d 7e 3f 83 22 7d be 6b 2a d7 be c1 67 20 c0
       0.9923895 -0.24720196 -0.4202455 -2.5063326
0001f0 4f c8 4a be 17 2f bd be 50 a0 d4 3f 39 28 cb be
       -0.19802974 -0.3694999 1.6611423 -0.39679125
000200 f2 cb 93 be f8 77 fe bf 7c db 67 bf b6 a1 11 3f
       -0.28866535 -1.9880362 -0.9056928 0.56887376
000210 d7 dc 6e 3f f4 aa 2b be c6 fb b4 bf 24 1a 84 bf
       0.93305725 -0.16764432 -1.4139335 -1.0320477
000220 19 e3 16 3f c6 c7 a1 3f 0b 21 a6 be 50 ff 08 3f
       0.58940274 1.2639091 -0.32447085 0.53514576
000230 35 26 1a 3e 60 0d 81 be 6f cc 8a be 1b 5a a3 3e
       0.15053637 -0.25205517 -0.27109095 0.31904683
000240 a0 f3 37 bf dc 7c 0b bf e1 78 95 3e a7 29 a8 be
       -0.7185612 -0.54487395 0.29193786 -0.32844278
000250 3c 67 12 bf 04 6a 24 3e bc ca b7 bd 22 39 b4 bc
       -0.57188773 0.16056067 -0.089742154 -0.0219999
000260 53 e1 53 bf fa e4 ab 3f f1 27 6a be 0a 73 86 bf
       -0.8276569 1.3429253 -0.22866799 -1.0503857
000270 e6 6d 29 40 19 96 cc be 0d 8b a4 bf f5 d3 ca 3e
       2.6473327 -0.39958265 -1.2854935 0.39614835
000280 68 c4 88 be 30 85 22 bf c4 2a 82 be 20 c0 d9 be
       -0.26712346 -0.6348448 -0.25423253 -0.42529392
000290 94 8b 88 bf e0 54 be 3f 69 d9 96 bf 15 ba d7 be
       -1.0667596 1.4869652 -1.1785098 -0.42134157
0002a0 cf 6b a4 3a db 6f 7e 3e dd c1 81 bf 93 45 40 3f
       0.0012544336 0.24847357 -1.0137287 0.7510616
0002b0 5a 7b 12 bf 41 e1 68 bf 92 31 b2 3e 71 27 34 3f
       -0.5721947 -0.9096871 0.34803444 0.7037268
0002c0 84 de 6e c0 c5 63 d5 be 6a f0 e4 bf 28 f3 2b bf
       -3.7323313 -0.4167768 -1.7885869 -0.671679
0002d0 ea a6 9e 3d 2b 5a 08 3e be e4 57 be 67 c6 a8 bf
       0.0774668 0.13315646 -0.21083352 -1.3185548
0002e0 ed 3f a7 bf bd f1 36 bf 28 5d fd bf b8 02 fa bf
       -1.3066384 -0.71462613 -1.9794054 -1.953208
0002f0 e8 77 b7 bf c5 73 18 3e a9 1f 0c be 9c fa f9 bd
       -1.4333467 0.14887913 -0.13683952 -0.12206003
000300 d0 26 db bd dc 43 47 bf 1b bb 83 bf e1 0b 76 bf
       -0.10700762 -0.7783792 -1.0291475 -0.96111876
000310 13 37 ad 3e c4 a1 7d be ba cf a6 bf 25 33 9e 3e
       0.3383108 -0.2476874 -1.3032143 0.30898395
000320 12 a2 a4 3f b0 5b 58 3f 87 75 4a bf ff a4 b0 bf
       1.286196 0.84514904 -0.7908558 -1.3800353
000330 58 c1 a0 bf ca aa a2 3e 6e ee 86 bd 9e 06 59 be
       -1.2559004 0.31770927 -0.065884456 -0.2119393
000340 37 82 c7 3f 3c 94 50 bf 7e 86 2f 3f 77 b8 55 bd
       1.5586613 -0.8147619 0.68564594 -0.052177873
000350 df c4 89 be c2 7a e3 bd 33 43 aa be 8d 77 ba 3d
       -0.26908013 -0.111073986 -0.33254394 0.09104834
000360 c2 21 41 40 bc 2c 00 c0 bf 4d bb 3f 33 0f f0 3f
       3.0176854 -2.0027304 1.4633101 1.8754638
000370 e7 96 0a 3f be e6 64 b9 d2 ed 6f 3f 60 e4 9a be
       0.5413651 -0.00021829733 0.9372226 -0.3025236
000380 5b f8 d5 3f fe ef b1 3f 49 8d e2 3e 02 9a c6 3e
       1.6716417 1.3901365 0.44248417 0.38789374
000390 06 5c 00 bf 65 61 b8 3e 73 ca 88 bf 09 ef 29 3f
       -0.50140417 0.36011806 -1.0686783 0.66380364
0003a0 cb 81 1a 3f fc fa fd bd e3 0b df 3e 9a ee ab bf
       0.603543 -0.12401387 0.43563756 -1.343219
0003b0 31 40 4c bf db 18 27 be d1 3f 3d bf 35 a9 e5 bb
       -0.7978545 -0.16318075 -0.739255 -0.0070086964
0003c0 e6 9c 6a 3f d0 ef 62 be 19 b1 75 bf 8e cb 66 be
       0.9164566 -0.22161794 -0.95973355 -0.22538587
0003d0 15 2e 81 3f a3 dd 73 3d 73 c9 8e 3f be 41 8d be
       1.0092188 0.05953754 1.1155227 -0.2758922
0003e0 09 07 44 bd 59 34 a0 3e 8c 00 6d bf 1f 0a 26 be
       -0.04785827 0.31289938 -0.9257896 -0.16214798
0003f0 79 7c 4d bf 3d 26 7d 3e 4b 6d 6d bf 1d f0 05 3f
       -0.80268055 0.24721618 -0.9274489 0.5231951

pos_encoder.weight f4 [3000, 4]
000000 0e f0 f2 be 4b 0d dc bf 6d 60 81 3f 9e 90 0d 3f
       -0.47448772 -1.7191557 1.0107552 0.55298793
000010 87 96 9f bf 87 0a 8f 3e 12 3f c6 bf 13 80 a1 3f
       -1.2467812 0.2793772 -1.5487998 1.261721
000020 b3 75 5c be 0c f4 38 bf 6b 4b 01 3f 41 90 00 c0
       -0.21529274 -0.72247386 0.50505704 -2.0088046
000030 b3 fa fc bf 72 ea 00 c0 9b 75 58 bf c6 d7 aa bf
       -1.9764007 -2.0143094 -0.8455445 -1.3347099
000040 43 60 1d c0 c8 8b 04 c0 ea 33 05 bf 57 b1 e1 3e
       -2.4590003 -2.0710316 -0.5203234 0.44080612
000050 f9 d3 63 3f 6f 3b c7 bf d6 35 06 40 ab 2e 4c bf
       0.8899532 -1.5565013 2.097036 -0.7975871
000060 42 00 dd bf f6 7e c6 3e 04 be 1c be a0 b8 24 bf
       -1.7265704 0.38768739 -0.1530686 -0.64344215
000070 89 82 9a be 32 35 1b 39 51 e5 92 3f da b8 74 be
       -0.30177715 0.00014801769 1.1476232 -0.2389864
000080 e9 33 dc bf 4c c5 06 bf 6f 31 b2 3f 99 a3 04 bf
       -1.7203342 -0.526448 1.3921336 -0.5181213
000090 c7 b8 82 be 9a 65 b1 be 31 0b 33 3e 75 42 dd 3f
       -0.255316 -0.34647828 0.17484738 1.7285906
0000a0 95 e3 15 3e 81 84 42 3f 37 d6 46 be 82 33 25 be
       0.14637597 0.75983435 -0.19417654 -0.1613293
0000b0 82 08 6c be df b4 82 be a1 69 3c 3f 74 8f 0b bd
       -0.2305012 -0.2552862 0.73598677 -0.034072354
0000c0 1f 09 6c bf 49 36 56 3e e9 17 42 bf 69 b4 8f 3d
       -0.9220142 0.20919146 -0.75817734 0.070168324
0000d0 86 0c 02 3f 39 c8 91 3f 4b 89 83 3f 90 2f ff 3e
       0.5080036 1.1389228 1.0276273 0.49840975
0000e0 22 ed 37 bf f1 83 10 c0 9e 10 b0 3e 5f 65 00 bf
       -0.7184621 -2.258053 0.34387678 -0.5015468
0000f0 4e a9 9c 3f 9a 21 fb 3e e5 c9 5b bf 96 61 ac 3e
       1.2239168 0.49049073 -0.8585494 0.33668202
000100 0d 89 a4 be ea 94 85 3d 9f 41 87 be 29 04 a9 be
       -0.3213581 0.06522544 -0.26417252 -0.33010986
000110 69 c0 89 3e b0 00 93 bf b0 05 8e 3f 5e e2 f3 bf
       0.2690461 -1.1484585 1.1095486 -1.9053457
000120 43 c5 16 3d 83 37 b3 bf 35 28 32 bf c6 f3 25 3f
       0.036809217 -1.4001316 -0.695926 0.64825094
000130 41 67 95 3e 9d d4 30 bf 36 bf 01 be f4 4c 57 3f
       0.2918034 -0.6907442 -0.12670597 0.84101796
000140 5f 11 db bf 64 2b f6 3e ed 6b 78 3f 16 20 68 3e
       -1.7114676 0.4807998 0.9703968 0.2266849
000150 08 84 a6 3d 29 5e 14 bf 79 38 99 bf 03 3f 13 3f
       0.08130652 -0.57956177 -1.1970359 0.57518023
000160 1c a4 80 bf b0 65 6c 3f d3 37 9f 3f 59 dd 2e 3d
       -1.0050082 0.9234266 1.2438911 0.042691562
000170 b7 28 11 3f 90 88 a0 bf 86 69 9d 3e b3 28 13 3f
       0.5670275 -1.2541676 0.3074457 0.5748398
000180 f6 e2 93 3e bd e8 f6 3e 50 9a d5 3f 1d 4f 4e bf
       0.28884095 0.4822444 1.6687717 -0.8058947
000190 5c bb 2c 3e 81 ff b2 3e 72 55 be bf 80 43 67 bf
       0.16868347 0.3496056 -1.4869826 -0.9033737
0001a0 b0 ec 7f 3d b9 16 49 3f f8 50 44 3f 25 ea 00 c0
       0.062481582 0.785503 0.7668605 -2.014291
0001b0 20 b2 88 3f 97 cc 22 be c5 2e 67 3f 94 dc aa 3d
       1.067936 -0.15898357 0.9030574 0.08342853
0001c0 a0 db a7 3f d3 07 b7 be 1c e3 00 3f e2 2e 0a bf
       1.3113899 -0.35748157 0.5034654 -0.5397779
0001d0 92 ec 8a 3f ca 41 02 bf 64 eb 95 3f 49 d7 b4 3e
       1.0853446 -0.50881636 1.171246 0.353205
0001e0 d4 76 36 3d a3 ea d5 bf 56 55 a2 3e 4f 5c a5 bf
       0.044546917 -1.671223 0.3170573 -1.2918795
0001f0 42 1a 14 bf b2 02 0e 40 79 4d 1d 3f f5 5c 34 3f
       -0.57852566 2.2189145 0.6144634 0.7045434
000200 00 72 f7 3e 35 08 b7 bb ee 8e d2 3f d1 71 b0 be
       0.48329163 -0.005585695 1.6449869 -0.34461835
000210 a1 93 ff bf 22 3c 15 bf 06 f2 9c 3f d5 40 bb bf
       -1.9966928 -0.5829488 1.226136 -1.462916
000220 80 2a e7 bc 09 97 c0 3e de 55 14 be c4 8d 1b bf
       -0.028218508 0.3761523 -0.1448588 -0.6076319
000230 49 65 9e 3e f9 f3 25 bf 48 f0 96 be e4 58 00 bf
       0.3093665 -0.648254 -0.29480195 -0.50135636
000240 4e e8 05 c0 8e b0 a6 3f b2 a4 db 3e 39 82 60 be
       -2.0923038 1.302263 0.4289909 -0.21924676
000250 22 32 65 3f dc f0 6b bf ae 14 77 be 96 cc 0f bf
       0.8952962 -0.921644 -0.24128982 -0.5617155
000260 b9 55 d6 bf ba 8f 24 bf 19 ad 7c 3e d4 e3 13 3e
       -1.674491 -0.6428181 0.24675407 0.14442378
000270 da 7d d1 3f a5 8a cf be cb 8b 24 3e c9 f5 9d bf
       1.6366532 -0.40535465 0.16068952 -1.2340633
000280 6a 23 19 3e 4f c9 a0 3e 81 09 02 bd c6 87 ba 3f
       0.14954916 0.31403586 -0.031747345 1.4572685
000290 13 b9 86 3e 05 18 99 be 40 0e 6e 3e a1 af 65 be
       0.26313075 -0.29901138 0.23247623 -0.22430278
0002a0 9b a2 0d 3f d7 6a 8d 3f d9 24 73 3f 7d 28 7a be
       0.5532624 1.104823 0.949781 -0.24429508
0002b0 d4 48 28 3f 79 6a 47 3e 53 bf 29 3f 4f 4a 72 3f
       0.65736127 0.1947421 0.6630756 0.94644636
0002c0 c4 44 47 bf b6 7a 7c 3f 3d c9 a6 3f 11 e7 2b be
       -0.77839303 0.9862474 1.3030163 -0.16787364
0002d0 0b 53 b1 be e9 ca 89 3f 5e 1c ec bf cf 11 38 bf
       -0.3463367 1.0765048 -1.8446157 -0.71902174
0002e0 0b 14 0e bf cc 19 5a 3f c3 18 b0 be 2b f8 b9 3f
       -0.55499333 0.8519561 -0.34393892 1.452886
0002f0 86 28 fa be ee 47 d5 be 9c 65 4e 3e 19 92 10 bf
       -0.48859042 -0.4165644 0.20155948 -0.5647293
000300 0a 18 8c 3f e4 66 aa bf f8 7c bc bf ca 24 8d bf
       1.0944836 -1.331265 -1.4725637 -1.1026852
000310 d4 77 0a bf 81 5e 09 bf 83 fb 2c bd 43 b3 a5 3e
       -0.54089093 -0.53659827 -0.042232048 0.32363328
000320 67 c7 bb bf c5 4b 1a 3e 05 db cb be 92 f6 53 3f
       -1.4670228 0.15067966 -0.39815536 0.8279811
000330 9e 05 85 be ca 97 1c bf 78 83 08 3f fb 04 49 bf
       -0.25980848 -0.6116911 0.53325605 -0.78523225
000340 4a f8 a7 bf 44 ec 88 bf a3 66 39 3f 1e c2 cf bd
       -1.3122647 -1.0697103 0.72422236 -0.10144447
000350 f0 b1 c6 3f 6b b5 0b bf 77 a1 62 3f 49 85 51 bf
       1.5523052 -0.54573697 0.88527626 -0.81844
000360 c4 67 09 3e a6 24 88 3d 1d fc 36 bd 8f c8 b9 be
       0.1341849 0.06647615 -0.044674028 -0.36285827
000370 a3 c7 5d bf ff e5 94 3e e1 0a ed 3e 9e cd df 3b
       -0.86632746 0.29081723 0.46297362 0.0068299314
000380 27 22 02 bf 7c 52 2b 3f 8d 1a ca 3f 82 64 7a bf
       -0.5083336 0.66922736 1.5789353 -0.9780961
000390 ad 85 64 3f 70 4d 65 3f 0e aa a8 3f 23 48 e2 be
       0.89266473 0.89571285 1.3176897 -0.4419566
0003a0 5f 1a fd 3f 99 5e 96 bf ff 17 8e bd f3 f8 85 bf
       1.9773673 -1.1747619 -0.06938171 -1.0466598
0003b0 4d 13 c1 bf 52 1f 4f 3e f5 d0 d1 3f 6e d4 99 bc
       -1.5084015 0.20226792 1.6391894 -0.018778052
0003c0 bf a2 a3 bd 5f e9 27 bf da 15 bd 3f 0c bb 5a bf
       -0.07990026 -0.6559047 1.4772294 -0.8544166
0003d0 86 d8 a9 3c 4e 12 33 bf e1 f5 10 3f a4 d2 ad 3e
       0.02073313 -0.69949806 0.5662518 0.3394977
0003e0 64 24 aa 3f da db a0 bf 83 ef 03 3f 68 3d c7 3f
       1.3292356 -1.2567093 0.5153734 1.5565615
0003f0 e3 20 bf bf f5 6c f2 bd 23 35 ab 3e 47 71 0c 3f
       -1.4931911 -0.11837188 0.33438978 0.5486035

transformer_encoder.layers.0.self_attn.in_proj_weight f4 [12, 4]
000000 23 49 ea bd bc 74 85 be 27 d5 da bd 89 aa 48 3e
       -0.11439731 -0.26065624 -0.10685187 0.19596304
000010 7a 87 af bd 3e 02 61 3d c7 0b 2e bd 41 cd 2e 3e
       -0.08570762 0.05493378 -0.0424917 0.17070486
000020 50 6c 05 bf d1 13 a3 be 12 02 a1 bc e5 a2 63 be
       -0.52118397 -0.31851056 -0.019654308 -0.22230108
000030 11 a8 c9 3d 49 65 7a be e4 e6 23 3f b8 52 a3 3e
       0.09846509 -0.244527 0.64024186 0.31899047
000040 9c b2 b4 be 31 d4 78 be 60 b0 a1 3d 74 53 fa bd
       -0.35292518 -0.24299695 0.07894969 -0.12222949
000050 eb 23 4e bd ed c3 62 ba 80 d1 1a 3e 87 43 5a 3c
       -0.050327223 -0.0008650411 0.1511898 0.013321764
000060 57 7f e8 bd 30 a3 63 bd 99 ec 29 bf 36 1c 6e 3d
       -0.11352413 -0.05557555 -0.66376644 0.058132373
000070 f1 ea 1a 3f 0a 14 d7 3d 4b 06 d5 bb 02 63 ef be
       0.6051474 0.10501869 -0.0065009943 -0.46755224
000080 14 c8 1e bf d8 35 d9 3f 73 41 46 bf 09 0d b4 bf
       -0.62024045 1.6969557 -0.7744362 -1.4066478
000090 49 cb 0e 3f 6f 4d ac bf c7 c8 0a 3f c8 b3 be 3f
       0.5577894 -1.3461131 0.5421261 1.4898615
0000a0 6a 38 83 3f b6 1d b4 bf 80 1b 01 3f 3e ed 9b 3f
       1.0251591 -1.4071567 0.50432587 1.2181776
0000b0 76 8b 44 be 9b 9e 94 3f a4 43 a2 3e d1 27 96 bf
       -0.19193825 1.1610903 0.3169223 -1.1730901

transformer_encoder.layers.0.self_attn.in_proj_bias f4 [12]
000000 f8 5f ba 3c 6b d5 9a 3b da ba 4f bd 6c 24 87 bd
       0.02275084 0.0047251484 -0.050715305 -0.06598744
000010 6c 0b 8d bd 70 2d d8 bc d3 d7 14 be cc 59 e3 3d
       -0.06886944 -0.026388854 -0.14535455 0.11101112
000020 ed f8 c8 ba b4 2c 1a bb 7d d6 6f 3c 32 6e 63 bd
       -0.0015332975 -0.002352518 0.01463854 -0.055525012

transformer_encoder.layers.0.self_attn.out_proj.weight f4 [4, 4]
000000 1d 1c 92 bf c9 6c 92 3f a2 1d 4b 3f 29 7d 78 be
       -1.141483 1.1439449 0.7934209 -0.24266495
000010 89 f8 58 3f 61 88 6b bf 5c 2f 88 bf 37 e0 4b 3f
       0.84754235 -0.9200497 -1.0639453 0.79639
000020 35 6b bd bd be 2a 79 3e 45 91 e7 3e 02 9c e4 be
       -0.09248964 0.24332711 0.4522802 -0.44650275
000030 cf 05 80 bf 30 9f 18 3f 7d 04 53 3f 74 11 6a 3d
       -1.0001773 0.596179 0.82428724 0.05714555

transformer_encoder.layers.0.self_attn.out_proj.bias f4 [4]
000000 d4 86 aa bc 54 e4 05 bc 70 ce ac 3d 3d f9 29 bb
       -0.020816244 -0.008172113 0.08437812 -0.002593591

transformer_encoder.layers.0.linear1.weight f4 [4, 4]
000000 03 0f b5 bd 80 00 b1 3d ae 70 52 3e e2 b0 cb 3d
       -0.08840754 0.086426735 0.20550796 0.09945847
000010 de 9c df ba b4 18 5d 3e 3d d6 c7 bd 55 eb a2 bc
       -0.00170603 0.21591455 -0.097576596 -0.019887606
000020 cb c6 7f bd e4 cb f1 be 15 5c b6 be c2 ee a8 3e
       -0.062445443 -0.4722587 -0.35617128 0.32994658
000030 f5 09 da 3d 29 4f ce 3b 5a 7e 19 be a8 bf 86 bd
       0.106464304 0.0062960577 -0.14989606 -0.06579524

transformer_encoder.layers.0.linear1.bias f4 [4]
000000 2d 65 02 bf 11 71 b4 bd 78 5e 0d bd db 7b c4 be
       -0.5093563 -0.08810628 -0.03451392 -0.38375744

transformer_encoder.layers.0.linear2.weight f4 [4, 4]
000000 be da b8 3d d5 4d 0b bd 30 c1 bd 3e 39 7a 21 be
       0.09026097 -0.034009773 0.37061453 -0.1576928
000010 87 70 fe 3e fe c9 9f 3e a9 9d b2 be 30 74 d1 bd
       0.49695227 0.31208795 -0.3488591 -0.10227239
000020 12 3c eb bc 96 b8 01 be 0f 1b 71 bc 3e e6 ce 3d
       -0.028715167 -0.1266807 -0.014715924 0.10102509
000030 bf 38 a4 3e 5a d3 4b be b0 77 a8 3e 68 42 5e bc
       0.32074544 -0.19904843 0.32903814 -0.013565637

transformer_encoder.layers.0.linear2.bias f4 [4]
000000 de 79 e5 3d 0a 3a 34 3e f6 de a2 bd f6 7d b8 3e
       0.11204885 0.17600265 -0.07952683 0.360336

transformer_encoder.layers.0.norm1.weight f4 [4]
000000 41 11 84 3f fc 33 f0 3f b3 f8 76 3f c7 10 bd 3f
       1.0317765 1.8765864 0.96473235 1.4770745

transformer_encoder.layers.0.norm1.bias f4 [4]
000000 d6 9a 41 3d 7e d1 83 bb 64 35 41 3e d3 7d 12 bd
       0.047266804 -0.004022776 0.18868023 -0.035764527

transformer_encoder.layers.0.norm2.weight f4 [4]
000000 f5 47 06 40 81 21 ab 3f 83 4d df 3f e2 c9 ea 3f
       2.098142 1.33696 1.744553 1.834286

transformer_encoder.layers.0.norm2.bias f4 [4]
000000 df de 09 be e7 5e b6 3b 57 45 f1 3c 3b 83 41 bd
       -0.13463925 0.0055655125 0.02945201 -0.04724429

fc.weight f4 [2, 4]
000000 36 e1 c1 3e 53 28 15 bf ad 0a 5c 3f 36 83 84 3f
       0.37867135 -0.58264655 0.8595379 1.0352542
000010 51 de 9b bf 95 31 10 3f ba d2 73 bd 01 84 8e bf
       -1.217722 0.56325656 -0.059527136 -1.1134034

fc.bias f4 [2]
000000 07 e2 98 be 03 cb 84 be
       -0.29859945 -0.25936136
