model_weights/checkpoint_transformer2_ce.pt (torch, 628130 bytes, 16 tensors)

embedding.weight f4 [38412, 4]
0	0xbf32c3fb	-0.6983029
1	0xbf0356d5	-0.5130437
2	0xbf26aefb	-0.6511075
3	0xbfc87a27	-1.5662278
4	0xbec28a77	-0.37996265
5	0xbf3a9c96	-0.7289518
6	0x3f878952	1.0588782
7	0x3f1c7510	0.61116123
8	0xbf592659	-0.8482414
9	0x3f6ad21b	0.91726846
10	0x3feb6b1a	1.839206
11	0xbfb2c321	-1.3965799
12	0xbe8e3292	-0.27772957
13	0x3fc8d07c	1.5688624
14	0xbf0e0132	-0.55470574
15	0xc0368214	-2.8516893
16	0xbf092d2c	-0.5358455
17	0x3edfe671	0.437305
18	0xbe12b747	-0.14327727
19	0xbf16c5e2	-0.58895695
20	0xbe097478	-0.13423336
21	0x3e2ee228	0.1707846
22	0x3ee74634	0.45170748
23	0x3edb0539	0.42777422
24	0xbf9abb4a	-1.2088406
25	0x3e91bd11	0.2846456
26	0xbf02e649	-0.5113264
27	0xbec1b7b7	-0.37835476
28	0xbf91a49c	-1.137836
29	0x3ea67d06	0.3251726
30	0x3f487512	0.78303635
31	0xbd93ab4d	-0.072104074
32	0x3e5d191d	0.21591611
33	0x3e78a7be	0.24282739
34	0xbdd3719d	-0.103244044
35	0x3e21bae3	0.15793948
36	0x3f9e40cb	1.2363523
37	0x3f3375f6	0.7010187
38	0x3f580365	0.8438018
39	0x3e1a0d84	0.15044218
40	0xbeccbcde	-0.39987844
41	0x3f18cddf	0.59689134
42	0xbe994aa2	-0.29939753
43	0x3f364125	0.7119315
44	0xbf54b155	-0.8308309
45	0xbf7ffb9c	-0.999933
46	0x3f34d07a	0.7063061
47	0x3ec899bd	0.39179793
48	0xbf0d2792	-0.55138505
49	0x3f800603	1.0001835
50	0xbf1bde3d	-0.60885984
51	0x3e9b5840	0.30340767
52	0x3f85208f	1.0400561
53	0xbe40f6c6	-0.18844137
54	0x3e41b0d1	0.18915106
55	0x3ee184d3	0.4404665
56	0xbf1b5d33	-0.60689086
57	0x3f6ac3ef	0.9170522
58	0xbe78a6a6	-0.24282321
59	0x3faf697c	1.3704066
60	0x3f8f0ff0	1.1176739
61	0xbf1ff971	-0.6248999
62	0x3fe5855e	1.7931325
63	0xbef8c774	-0.4858967
64	0xbfe09560	-1.7545586
65	0x3e8785f7	0.26469395
66	0x3eb0b166	0.34510344
67	0xbf1a1d36	-0.6020082
68	0xbfd0b791	-1.630602
69	0xbf6a97e2	-0.91638005
70	0x3fe8290a	1.8137524
71	0xbf5512df	-0.8323192
72	0xbeffb32e	-0.4994139
73	0xbde2e641	-0.11079074
74	0x3e9d2bd5	0.30697504
75	0xbfbf2a10	-1.4934711
76	0xbf0d1080	-0.551033
77	0xbf8329b5	-1.0247103
78	0x3ef2ed9e	0.47446913
79	0x3f5d084e	0.86340797
80	0x3fa8d40f	1.3189715
81	0xbf2cd155	-0.67506915
82	0x3f8fff09	1.1249706
83	0xbd97381d	-0.0738375
84	0x3f580318	0.8437972
85	0x3ef6ac4b	0.48178324
86	0x3fa1aeaa	1.2631428
87	0xbf9cadff	-1.2240599
88	0x3fafb97d	1.3728482
89	0x3ee1834e	0.4404549
90	0x3df5caf5	0.120016016
91	0x3f6e7171	0.9314185
92	0x3f8629a1	1.0481454
93	0xbeb85a6a	-0.3600648
94	0xbe27ea7c	-0.16398042
95	0xbd977857	-0.07396
96	0x3eecdaad	0.46260586
97	0xbcae9d58	-0.021315262
98	0xbe3105b5	-0.17287333
99	0x3fd9975f	1.699932
100	0xbf0340fc	-0.51271033
101	0x3f0c6f35	0.5485719
102	0x3f2beea7	0.6716103
103	0x3fa24357	1.26768
104	0xbf45fc9d	-0.7733858
105	0x3edbcb35	0.42928472
106	0x3f5248c9	0.8214231
107	0x3e868701	0.26274875
108	0xbe4c69eb	-0.1996228
109	0xbf9d0f34	-1.2270265
110	0xbf445d30	-0.7670469
111	0x3ebc29c9	0.3675063
112	0x3f79ed22	0.9762746
113	0x3f453432	0.7703277
114	0x3e8fd4c9	0.2809203
115	0x3eeaa06e	0.45825523
116	0x3dff56a9	0.12467701
117	0xbe8ad32d	-0.2711424
118	0x3e644efa	0.22295752
119	0x3f7527f1	0.9576407
120	0x3e68c281	0.22730447
121	0xbd5f695b	-0.054543834
122	0x3fe29bcf	1.7703799
123	0xbf0417a4	-0.5159857
124	0xbfc52b00	-1.5403748
125	0xbf91b31a	-1.1382782
126	0x3f740fff	0.9533691
127	0xbf829d66	-1.0204284
128	0xbf2a3d95	-0.66500217
129	0xbf3f4a45	-0.747227
130	0x3d1c49f8	0.03815648
131	0x3daa9591	0.08329309
132	0xbe836d92	-0.25669533
133	0x3fb64c97	1.4242123
134	0xbf84220a	-1.0322888
135	0xbe9fd6cc	-0.31218565
136	0xbf800a34	-1.0003114
137	0xbf855a2e	-1.0418146
138	0x3f04363f	0.5164527
139	0xbeb3602c	-0.3503431
140	0x3e4e2fb1	0.2013538
141	0xc009b42e	-2.1516223
142	0x3f4abec8	0.7919736
143	0x3f581559	0.84407574
144	0xbef1448a	-0.47122604
145	0x3d83006c	0.06396565
146	0xbd977eeb	-0.073972546
147	0x3f25b468	0.64728403
148	0x3e7a9080	0.24469185
149	0xbf2b3975	-0.6688455
150	0x3f985ce5	1.1903349
151	0xbcb1fd96	-0.021727365
152	0xbfba748a	-1.4566815
153	0x3ee695a8	0.45036054
154	0xbfd725fc	-1.6808467
155	0x3e9fdebe	0.31224626
156	0x3f8e6c0f	1.1126727
157	0xbed0b734	-0.40764773
158	0xbf7a28f5	-0.97718745
159	0xbef2ab77	-0.47396442
160	0x3ebddf53	0.37084445
161	0x3fec3902	1.8454897
162	0x3ea567c9	0.32305744
163	0xbf3507a3	-0.7071478
164	0xbf049b70	-0.5179968
165	0x3fc5f57a	1.5465539
166	0x3d360d97	0.044446554
167	0x3faec897	1.3654965
168	0x3e4f13fc	0.20222467
169	0xbe8c6f7a	-0.274288
170	0x3eb8017f	0.3593864
171	0xbe8bb4cb	-0.27286372
172	0x3f223335	0.63359386
173	0xc015771c	-2.3353949
174	0xbfa48197	-1.2852048
175	0x3f64d616	0.8938917
176	0xbf978161	-1.1836358
177	0x3ee350d0	0.44397593
178	0xbf2767a7	-0.65392536
179	0xbeeacbd5	-0.45858636
180	0xbfcdbc74	-1.6073136
181	0xbde8ecc7	-0.11373287
182	0xbcd39132	-0.02582607
183	0xbfde4420	-1.736454
184	0xbfd1a363	-1.6377987
185	0xbf012518	-0.50447226
186	0xbeab6910	-0.33478594
187	0xbfc41f38	-1.5322027
188	0x3f5935f1	0.84847933
189	0x3f3af470	0.7302923
190	0x3f1a6a7f	0.6031875
191	0xbd833961	-0.064074285
192	0x3e9f6e70	0.31138945
193	0x3fe8b3ab	1.817983
194	0xbf4be78c	-0.7965019
195	0x3e493e76	0.19652733
196	0xbece33ed	-0.4027399
197	0xbda4b3bc	-0.08042094
198	0x3f3022ae	0.68802917
199	0xbf8d363c	-1.1032176
200	0xbe8ff6f6	-0.28118104
201	0x3e873a9b	0.264119
202	0x3f83a957	1.0286053
203	0xbe543a2a	-0.20725313
204	0xc01230e0	-2.284233
205	0x3edc125c	0.42982757
206	0x3fb658eb	1.4245886
207	0x3e446c43	0.19181924
208	0x3e95efe5	0.29284588
209	0x3ed022e4	0.4065162
210	0xbf07b750	-0.5301409
211	0x3eb71e2c	0.35765207
212	0xbfa5f7c0	-1.2966232
213	0x3faed58c	1.3658919
214	0x3f04b1b5	0.5183366
215	0xbee7998b	-0.4523433
216	0x400cdddd	2.2010415
217	0xc02b529c	-2.676917
218	0xc024b082	-2.5732732
219	0xbfea6940	-1.831337
220	0xbf4a16c1	-0.7894097
221	0x3def4046	0.11682181
222	0xbeca4c74	-0.39511454
223	0xbf851fe2	-1.0400355
224	0x3f286de5	0.65792686
225	0x3f0baa4b	0.5455672
226	0x3f34aa1c	0.70572066
227	0xbedaed5d	-0.4275922
228	0xbff0259e	-1.876148
229	0xbf421146	-0.7580761
230	0xbe13f462	-0.14448693
231	0xbdfcfb38	-0.12352604
232	0xbfcc15ca	-1.594415
233	0xbf01999f	-0.5062503
234	0xbf492cfe	-0.7858428
235	0x3f0ede2b	0.5580775
236	0xbfa86e85	-1.3158728
237	0x3fcfb62a	1.6227467
238	0x3f05dcf3	0.52290267
239	0x3fbf3873	1.4939102
240	0x3f70ac57	0.9401297
241	0xbed524af	-0.4162955
242	0x3e836464	0.2566253
243	0x3ef47be9	0.47750786
244	0x3ee99981	0.45624927
245	0x3e610ec3	0.21978287
246	0x3f3fd1c9	0.7492948
247	0x3d301632	0.042989917
248	0xbe74b433	-0.23896866
249	0x3f1a5635	0.6028779
250	0x3f930f28	1.1489
251	0x3f62f767	0.88658756
252	0xc0004ede	-2.0048137
253	0x3ec42333	0.38308105
254	0xbd88cb43	-0.06679394
255	0xbea691ac	-0.32533014

pos_encoder.weight f4 [400, 4]
0	0x3f90de52	1.1317847
1	0xbe64bc46	-0.22337446
2	0xbf08fc36	-0.53509843
3	0x3da5c819	0.08094806
4	0x3f52e2b3	0.82377166
5	0x3e814ffc	0.25256336
6	0x3f5f51e0	0.87234306
7	0xbf122533	-0.5708801
8	0xbf68c7ba	-0.9092976
9	0x3fd305c4	1.6486135
10	0xbf88d0ac	-1.0688682
11	0xbee5f461	-0.4491301
12	0x3dc0627e	0.09393786
13	0x3f1a5058	0.60278845
14	0xbf48a187	-0.7837147
15	0xbfbf0a29	-1.4924976
16	0xbe05b0cc	-0.13055724
17	0xbf3d6d22	-0.7399465
18	0xbe7b69fc	-0.24552149
19	0xbfb7559c	-1.4323001
20	0x3f41dc96	0.7572721
21	0xbf05a5d9	-0.5220619
22	0xbea524e2	-0.32254702
23	0xbfb9bfe0	-1.4511681
24	0x3e8b2596	0.27177113
25	0xbfa64256	-1.2988994
26	0xbfae450f	-1.3614825
27	0x3f932f25	1.1498762
28	0x3f386871	0.72034365
29	0xbf9638cb	-1.1736082
30	0xbfba7686	-1.456742
31	0xbea29577	-0.31754658
32	0xbe896520	-0.26834965
33	0x3e3ea30b	0.18616883
34	0xbf647940	-0.8924751
35	0xbe1f4db5	-0.15556987
36	0xbf064568	-0.52449656
37	0xbf55e420	-0.83551216
38	0xbe9d97ab	-0.30779776
39	0xbfbc0078	-1.4687643
40	0xbd65b492	-0.05608041
41	0x3e067261	0.1312957
42	0xbf0999ec	-0.5375049
43	0x3f1ed997	0.62050766
44	0x3e83bde2	0.25730807
45	0x3fad0267	1.3516358
46	0xbef547cb	-0.47906336
47	0xbf78780e	-0.9705819
48	0xbee2eb6f	-0.44320247
49	0x3ec3619d	0.3816041
50	0xbf4b8e7d	-0.79514295
51	0xbf5a599a	-0.8529297
52	0xbf2d02ee	-0.67582595
53	0x3fe91465	1.8209349
54	0xbe995fe7	-0.2995598
55	0xbda351e4	-0.07974604
56	0xbf99f11c	-1.2026706
57	0xbdeeef93	-0.11666789
58	0x3fe372f2	1.7769454
59	0x3f0519b9	0.51992375
60	0xbf0c154b	-0.5471999
61	0x3e97504a	0.29553443
62	0x3f398856	0.7247366
63	0x3da98cca	0.082788065
64	0xbf683099	-0.90699154
65	0x3f06056b	0.5235202
66	0x3f604d6c	0.87618136
67	0x3e87ddb8	0.26536345
68	0xbf869a8b	-1.0515913
69	0x3f855548	1.0416651
70	0x3f30312e	0.6882504
71	0xbf29962e	-0.6624478
72	0x3f8ad260	1.0845451
73	0xbe2e2ae7	-0.17008553
74	0x3e68588f	0.22690032
75	0x3f5da608	0.8658147
76	0x3ee5b9c4	0.4486829
77	0xbd912642	-0.07087375
78	0xbecc77c0	-0.39935112
79	0x3f4ea87f	0.80725855
80	0xbfac2c48	-1.3451014
81	0x3f1b5d4d	0.6068924
82	0xbf7cfadc	-0.9882028
83	0x3e5f6900	0.21817398
84	0x3f0d0524	0.5508597
85	0x3f44ee61	0.7692624
86	0xbf4cc58e	-0.79988945
87	0x3f4bf3a9	0.7966867
88	0x3fa47db9	1.2850868
89	0x3fcc742a	1.597295
90	0xbed7b662	-0.42131335
91	0xbf038199	-0.51369625
92	0xbf072bc8	-0.5280118
93	0x3fcac065	1.5839964
94	0xbfa04d9a	-1.2523682
95	0x3ed4322f	0.41444537
96	0xbf280430	-0.6563139
97	0xbf9e4219	-1.2363921
98	0xbd168d9e	-0.03675615
99	0xbfe2beb0	-1.7714443
100	0x3f7a0c4e	0.97675025
101	0x3f8bb6c7	1.0915154
102	0x3f0dda62	0.5541135
103	0x3f7ce173	0.9878151
104	0x3f53e5aa	0.82772315
105	0x3de54f3f	0.111967556
106	0xbec8929e	-0.3917436
107	0x3e0659f0	0.13120246
108	0x3fbeb46e	1.4898813
109	0xbf3f1b8a	-0.74651396
110	0xbe3e13eb	-0.18562286
111	0xbf887714	-1.066134
112	0x3d8fc355	0.070196785
113	0xbf5dd27a	-0.86649287
114	0x3f9b46c8	1.2130976
115	0xbf85045c	-1.0391955
116	0x3f17e82e	0.59338653
117	0x3cf384d7	0.029726429
118	0xbff769c8	-1.9329157
119	0x3f12acf0	0.5729513
120	0x3f26b9dd	0.65127355
121	0xbf0cb782	-0.5496751
122	0x3ecaf264	0.39638054
123	0xbeda939f	-0.4269075
124	0xbc889193	-0.016670978
125	0xbf8321b1	-1.0244657
126	0x3d70c64b	0.058782857
127	0xbe36a84f	-0.17837642
128	0x3d8dabe6	0.06917553
129	0x3fcb20c3	1.5869373
130	0xbfc3c64f	-1.5294894
131	0x3f5d1fde	0.8637675
132	0xbf209293	-0.62723655
133	0xbe8e940e	-0.27847332
134	0xbf86adad	-1.0521752
135	0xbec8e8f3	-0.39240226
136	0x3f5e4c2a	0.8683497
137	0x3e8f2de0	0.27964687
138	0x3f3f0181	0.7461167
139	0x3fa360ab	1.2763876
140	0xbf6bd808	-0.9212651
141	0x3fa54861	1.2912713
142	0x3ff1d68b	1.8893598
143	0x3ee79921	0.45234016
144	0xbe1ca77d	-0.15298267
145	0xc0057577	-2.0852945
146	0x3fdec861	1.7404901
147	0x3fd63cce	1.6737306
148	0xbe92bfff	-0.28662106
149	0xc01927f9	-2.3930647
150	0xbde646cb	-0.112439714
151	0xbe378fcb	-0.17925946
152	0xbd953fe8	-0.0728758
153	0xbff58d81	-1.9183809
154	0x3fc1c988	1.5139627
155	0x3e659b72	0.22422579
156	0xc04cf92d	-3.2027085
157	0xbe3e98e6	-0.18613014
158	0xbe7b983e	-0.24569795
159	0xbf71aea7	-0.94407123
160	0xbf1e47ec	-0.61828494
161	0x3e535198	0.20636594
162	0xbf479950	-0.7796831
163	0xbe9bc7af	-0.30425784
164	0x3f7a57cf	0.97790235
165	0x3fc93e92	1.572222
166	0xbf2445df	-0.64169115
167	0x3d82fdc1	0.06396056
168	0xbdcfb16f	-0.10141265
169	0xbf5faed2	-0.8737613
170	0xbf0c0ec8	-0.54710054
171	0xbe907fec	-0.28222597
172	0xbf556ceb	-0.8336932
173	0x3f846f1c	1.0346408
174	0xbf62aab3	-0.88541716
175	0xbfeed304	-1.8658147
176	0x3f49eab5	0.7887376
177	0xc00329ee	-2.0494342
178	0x3f2a508e	0.66529167
179	0x3ee9bff8	0.45654273
180	0xbeb5c932	-0.35505062
181	0x3f9a4842	1.2053301
182	0x3fb8ec0d	1.4447037
183	0xbf7c3dc7	-0.98531765
184	0xbf0209b7	-0.50796074
185	0xbf28512f	-0.65748876
186	0x3efd1f75	0.49438062
187	0xbfc2ad45	-1.5209128
188	0x3e45b6af	0.1930797
189	0xbe2a6c43	-0.16642861
190	0xbe3cc0ef	-0.18432973
191	0xbf367632	-0.712741
192	0xbf74db61	-0.95647246
193	0xbf4b80f5	-0.7949365
194	0x3ee84328	0.45363736
195	0x3f5f5aef	0.8724813
196	0xbea9002a	-0.33007938
197	0xbe8371f9	-0.25672892
198	0x3ec46076	0.38354844
199	0xbfe6b156	-1.8022869
200	0xbe4b1d43	-0.19835381
201	0xbe567650	-0.2094357
202	0x3fb471ae	1.4097192
203	0xbe0f7671	-0.14010026
204	0x3f80341d	1.0015904
205	0x3eade94b	0.3396705
206	0xbf9a53da	-1.205684
207	0x3f8d77d0	1.1052189
208	0x400fdced	2.2478592
209	0xbf4ab71e	-0.79185665
210	0x3aa2b528	0.0012413608
211	0xbe962108	-0.29322076
212	0xc01f6441	-2.490494
213	0x3f268679	0.6504894
214	0xbf870560	-1.0548515
215	0xbed9413b	-0.4243258
216	0x3eebfb34	0.4609009
217	0xbbd28642	-0.006424696
218	0xbe86634c	-0.26247633
219	0x3f7855e4	0.9700606
220	0xbf3fdb56	-0.74944055
221	0x3facdfb4	1.3505769
222	0xbeeed9cd	-0.46650544
223	0x3e2f65a5	0.17128618
224	0xbf2ff2fd	-0.68730146
225	0x3ecb07ff	0.39654538
226	0x3fd9d14e	1.7017
227	0x3f3fd2ba	0.7493092
228	0xbdb878cc	-0.09007415
229	0x3ea3f1fc	0.32020557
230	0x3f8be86a	1.0930302
231	0x3ee5253e	0.44754976
232	0x3e8082c4	0.25099766
233	0x3ff19aa7	1.8875321
234	0xbf74d78f	-0.95641416
235	0x3e1c3009	0.15252699
236	0x3fc9bbe3	1.5760463
237	0xbed765d0	-0.42069864
238	0x3d805232	0.062656775
239	0xbec890a6	-0.39172858
240	0x3edaad4c	0.4271034
241	0xbf382a0e	-0.7193917
242	0xbfbb1385	-1.4615332
243	0x3fe490be	1.7856672
244	0x3f56a271	0.83841616
245	0x3f70024b	0.937535
246	0xbe35c64c	-0.17751426
247	0xbf7feb00	-0.99967957
248	0x3e9d138d	0.3067898
249	0xbfb043ce	-1.3770692
250	0x3f15d716	0.5853132
251	0x3ef72aeb	0.4827493
252	0x3e344a7c	0.17606539
253	0xbf4bccb5	-0.79609233
254	0x3ebb82b3	0.36623153
255	0xbf562b71	-0.83660036

transformer_encoder.layers.0.self_attn.in_proj_weight f4 [12, 4]
0	0x3e09c1e1	0.13452865
1	0x3cd44d26	0.025915693
2	0xbea59846	-0.32342738
3	0x3eeff85d	0.46869174
4	0x3e8cfe8b	0.2753795
5	0x3eae72ee	0.3407206
6	0x3e94d144	0.29065907
7	0x3e92cfb6	0.28674096
8	0xbdce42cf	-0.100713365
9	0xbe94c7d0	-0.29058695
10	0x3da966d7	0.08271568
11	0x3ecba5f3	0.39775047
12	0xbd0d8e77	-0.034559693
13	0x3d0fd9b9	0.035119746
14	0xbd993d4a	-0.07482393
15	0xbdfd27e0	-0.12361121
16	0xbd8cc9b0	-0.06874406
17	0x3eac940e	0.33706707
18	0xbea7bbf2	-0.32760578
19	0x3f3d77c9	0.740109
20	0xbf2ad546	-0.6673168
21	0xbd8800e4	-0.06640795
22	0x3e01985e	0.1265578
23	0x3ea24db3	0.31699905
24	0xbf1dd6ab	-0.6165568
25	0xbe66f53b	-0.22554485
26	0x3ee688ec	0.45026338
27	0x3e62fc02	0.22166446
28	0xbe1205a9	-0.14259972
29	0x3dfa7e73	0.122311495
30	0xbdb923dd	-0.090400435
31	0xbe2b74bb	-0.16743748
32	0x3e8f1df8	0.27952552
33	0xbfc9bcc2	-1.5760729
34	0xbf74ce33	-0.95627135
35	0x3d0faee6	0.035078906
36	0xbe7d355d	-0.24727388
37	0x3fb6089b	1.4221376
38	0x3fb237f6	1.3923328
39	0x3e9dab9f	0.30795
40	0xbd5db02c	-0.05412309
41	0xbfb3a053	-1.4033302
42	0xbfc15caa	-1.5106404
43	0x3f330351	0.69926935
44	0x3e2296d2	0.15877846
45	0x3fb3a90a	1.4035962
46	0x3fa90b3f	1.3206557
47	0x3e399a09	0.18125166

transformer_encoder.layers.0.self_attn.in_proj_bias f4 [12]
0	0x3cb0fb0f	0.021604089
1	0xbe04ea9b	-0.1298012
2	0xbe5ad0b1	-0.21368672
3	0x3c663e5c	0.014052954
4	0xbd597ee1	-0.053099517
5	0x3dc4b450	0.096047044
6	0x3d94fc45	0.07274679
7	0xbb017261	-0.0019752013
8	0xbd9445e9	-0.07239897
9	0x3c854364	0.016267486
10	0x3c9f2d5a	0.019430805
11	0xbb10d586	-0.0022099926

transformer_encoder.layers.0.self_attn.out_proj.weight f4 [4, 4]
0	0x3f717b63	0.943289
1	0xbeadd07c	-0.33948123
2	0x3f455c3a	0.7709385
3	0xbf54726b	-0.8298709
4	0xbf3ba193	-0.7329342
5	0x3f81c67a	1.0138695
6	0xbf57b0a9	-0.84253937
7	0x3f4f1087	0.80884594
8	0x3f732443	0.94977206
9	0xbf75af38	-0.9597049
10	0x3f4fc443	0.81158847
11	0xbf54f519	-0.8318649
12	0xbe2e25be	-0.17006585
13	0x3ef54591	0.47904637
14	0xbf6b5a21	-0.919344
15	0x3f5086f1	0.81455904

transformer_encoder.layers.0.self_attn.out_proj.bias f4 [4]
0	0xbaf43598	-0.0018631695
1	0xbd0984c4	-0.03357388
2	0xbcb050ea	-0.021522958
3	0xbe0fdf82	-0.14050105

transformer_encoder.layers.0.linear1.weight f4 [4, 4]
0	0x3e35df87	0.1776105
1	0xbbaa63c9	-0.0051998836
2	0x3df676cd	0.12034378
3	0xbddbcf84	-0.1073294
4	0x3e73bf8f	0.23803543
5	0xbed9c646	-0.42534083
6	0xbe85d489	-0.26138714
7	0xbe907ea7	-0.28221628
8	0x3ee5ec42	0.44906813
9	0xbf0b5da6	-0.5443977
10	0xbea93fdb	-0.3305653
11	0x3c57b1b1	0.0131649235
12	0x3f16413a	0.5869328
13	0xbe1ac0d4	-0.1511262
14	0x3d928f48	0.07156235
15	0x3eb3b9a2	0.35102564

transformer_encoder.layers.0.linear1.bias f4 [4]
0	0xbf0fe5be	-0.56209934
1	0xbd116140	-0.035493135
2	0x3d68cdb6	0.056836806
3	0xbe22fb4a	-0.15916172

transformer_encoder.layers.0.linear2.weight f4 [4, 4]
0	0x3e7e2955	0.24820454
1	0xbdd4433f	-0.10364389
2	0x3cf5ed60	0.030020416
3	0x3ed654fe	0.4186172
4	0x3eb129bc	0.34602153
5	0xbe905d02	-0.2819596
6	0xbecb2e66	-0.39683837
7	0x3e840cf1	0.25791124
8	0xbe18d917	-0.14926563
9	0x3e28f0c7	0.164981
10	0x3e61c8c2	0.2204924
11	0x3ed3bd79	0.41355494
12	0x3e749765	0.23885877
13	0xbf243b5a	-0.64153063
14	0xbf0efb8d	-0.55852586
15	0xbe69f0ae	-0.22845718

transformer_encoder.layers.0.linear2.bias f4 [4]
0	0x3e6b3b6a	0.22971883
1	0x3e1c461e	0.15261123
2	0xbd1ec8a2	-0.038765557
3	0x3ec12898	0.37726283

transformer_encoder.layers.0.norm1.weight f4 [4]
0	0x3fbe7d8e	1.4882066
1	0x3ff43394	1.907824
2	0x3f787661	0.9705563
3	0x3fa44b17	1.2835416

transformer_encoder.layers.0.norm1.bias f4 [4]
0	0x3b5b2822	0.003344067
1	0xbd11fae9	-0.035639677
2	0xbd9932ec	-0.07480416
3	0xbd5e8f4b	-0.054335874

transformer_encoder.layers.0.norm2.weight f4 [4]
0	0x3fe31af1	1.7742597
1	0x3facfc4d	1.3514496
2	0x3fbe4739	1.4865485
3	0x3fadabcd	1.3568054

transformer_encoder.layers.0.norm2.bias f4 [4]
0	0x3debbc87	0.11510568
1	0xbd0b6114	-0.034028128
2	0xbdec8043	-0.115479015
3	0x3dbb400c	0.09143075

fc.weight f4 [2, 4]
0	0x3f1d8cb8	0.61542845
1	0xbf44166f	-0.7659673
2	0x3f15a558	0.5845542
3	0xbd9cab0a	-0.076498106
4	0xbf24977d	-0.6429365
5	0x3f05e2ba	0.5229908
6	0xbee26f71	-0.44225648
7	0x3f25366b	0.6453616

fc.bias f4 [2]
0	0xbe88dd23	-0.26731214
1	0xbd97b54c	-0.074076265
