model_weights/checkpoint_transformer2_ce.pt (torch, 628322 bytes, 16 tensors)

embedding.weight f4 [38412, 4]
00000000: d567 0ebe 7435 a23e 52f5 9a3c 4c78 dbbe
00000010: 79dc 003f d8f2 753f 5eae db3e e4cf d2bf
00000020: 3ae7 aebf c1e8 efbf d950 89bf 726e e1bf
00000030: ad10 a13f 749e 3ebe aeee 903f 11c5 d0bf
00000040: 1218 92bf 5ae4 40bf 063d 943e fafc 8b3f
00000050: 4165 283f 1a2d a63d 750b 27bf 5b71 15c0
00000060: 6ac3 0b40 f4d3 2440 50a8 3640 e50d 463f
00000070: 9c27 0e3e e450 86bf dca1 003f 2ee7 46bf
00000080: 774d f33e f6da 863f c9c8 903f 9b04 d43e
00000090: 101c 32bf 92a2 c8bf 1bec 84bf 41bd d8bf
000000a0: 3953 b8bf 016f 2ec0 fd05 b63f 4971 5bbf
000000b0: c1bd 713e dae9 ae3e bb36 33be 5637 27bf
000000c0: 9d99 57bf 8881 14bf 82ea a23d fe5a 643e
000000d0: 0f95 9ebf 7ddc d03f d93b d9bf df4c 15bf
000000e0: 9b9f 88bf 5bd8 87bf 8ebf 1cbf 27d6 88bf
000000f0: dd6c 983e 775a bebf 7170 81be ced1 63bd
00000100: d34d 393e 96c9 463f e2ee c63e 137b 1cbf
00000110: 87ff 22c0 9faf 563f a625 5cbf f337 d2bf
00000120: fa39 89bf bf62 c7be 5223 9dbf 7b17 c43e
00000130: 5f54 0bbf d0c4 4e3f cdc8 893d 13af fabd
00000140: d0da 4f3f 5691 99bf e6e2 193f d7ae a93f
00000150: 2557 4b3f 369c 87bf 2a68 0340 c237 6b3e
00000160: 4a2a 803f 9e30 7bbe 065e ca3f 88ce 0a3f
00000170: 0db8 f9be 8cc1 713f e15a 7cbf e2e1 8fbe
00000180: 0e0e efbe 43da bd3e 0437 683f f3e2 a13f
00000190: 0063 8cbf ad45 aabf 3336 5cbf 2505 dfbe
000001a0: 820f d2be 2b43 633e 21e8 cb3f 6998 173f
000001b0: 8108 f93e ee97 b63d 5b93 41bd 4b5f e2bf
000001c0: acb8 f7be a3b5 c6bf f055 1240 3088 023f
000001d0: 16c6 8f3e 3da8 a0bf 9175 6e3f 10d9 c93f
000001e0: 9672 38bf e3e5 d7bd 0813 9bbe 73ab 2a3f
000001f0: cc44 1340 6798 45be 338c 24c0 97cc 3b3e
00000200: 7b5c 09be e8be 0ec0 cf0e 48bf 00ed 67bf
00000210: da4e 30be 46b4 44be 9cf6 4e3f 887d 73be
00000220: adcb ec3f f951 dfbf 2967 1840 4d5f f43f
00000230: c1bb b33e bc07 5a3f 281a 16bf 27df d13e
00000240: 7e51 0d3e 51fe 983f 3887 9d3f e3b2 343f
00000250: 0593 f73e e9a4 bebd 33f3 1cbe 3123 74bf
00000260: 2150 463e 39c2 e9bd 64c8 8abf 0716 d9bf
00000270: 3899 573f d22b 29bf dc06 be3e b641 c03f
00000280: 45fd 94be 2fe7 adbe dd1d a83e 60ff e3bc
00000290: 37b1 3c3e e0b3 f9bf d0ef 043e 7d55 98be
000002a0: 1520 c9bf b2fb f0be 84c7 01bf 865e 04bf
000002b0: 172d f2bf acb7 dcbd d7f1 8a3f b04d 09c0
000002c0: 6502 a93e 0b96 47be 2c9b 893f ae44 febf
000002d0: c6ae f7be 2aae e4bf dd55 793f 1a22 223f
000002e0: c9bf 0cbf 5d12 453f a710 a63f 1f37 443f
000002f0: 7391 993f 5bd7 58bf b0bb 89bf 3918 7dbf
00000300: 9eaf dfbe 5bfe ccbe a4c2 9f3e 6eeb 5dbf
00000310: 6165 1bbf 73f4 d13f 1dee 943f 1ed5 0cbf
00000320: 43f5 163d c3a1 9abf 38c2 9e3f 3824 c1bd
00000330: 00c8 55c0 59ce 28bf 5810 693e f101 c3be
00000340: 2123 9c3f 2dcc 8fbe 7978 b0bf 0872 c2bd
00000350: e0ad 2fbf 7967 143e 4bcc c4be f942 43bf
00000360: 82ae 483f 21ca 6e3f fc28 8ac0 01fc 4240
00000370: 93c7 e0bf 7d4b 583f 0393 5ebf 91c7 3e3e
00000380: ba1f 0c3f 9060 0e3f 17a0 b4bf 5f0c d33e
00000390: be19 d0be ac02 6c3f b2e5 4b3d 3036 bbbd
000003a0: 13d8 c4be 49d9 a7be db52 1bbf c86a c43f
000003b0: f2f9 2cbf 03b7 57bf 7898 a13f 1324 25bf
000003c0: efec 773e 3b1c 1f3f 50ad c03c 96d6 cbbd
000003d0: e8dc b7bd 157c b33f 8888 06bf 9526 c53f
000003e0: ccf6 f73d 3b59 49bf 3310 95be 7a33 74be
000003f0: ad8d 123f a6bf 2abd c1c7 843f 76c0 bdbe
-0.13906796 0.31681406 0.018915806 -0.42865217 0.50336415 0.96073675 0.4290647 -1.6469693
-1.3664315 -1.8742906 -1.0727798 -1.761183 1.2583214 -0.18615133 1.1322839 -1.631014
-1.1413596 -0.75348437 0.28952807 1.0936577 0.657795 0.08114071 -0.6525186 -2.3350437
2.1838021 2.5754366 2.854023 0.7736495 0.13882297 -1.0493436 0.5024698 -0.776965
0.47520038 1.0535572 1.1311275 0.41409764 -0.6957407 -1.5674613 -1.0384554 -1.6932756
-1.4400398 -2.7255251 1.4220577 -0.85719734 0.23607542 0.3416279 -0.17501347 -0.6531881
-0.8421877 -0.5801015 0.07954885 0.22300336 -1.2389239 1.6317288 -1.6971389 -0.5832042
-1.0673708 -1.0612901 -0.6122979 -1.0690354 0.29770556 -1.4871358 -0.25281098 -0.055620007
0.18096094 0.77651346 0.38854128 -0.61125296 -2.5468462 0.83861727 -0.85994947 -1.6423324
-1.0720818 -0.38942525 -1.2276404 0.38299164 -0.54425615 0.8076906 0.06727753 -0.12240424
0.81193256 -1.1997478 0.60111845 1.3256482 0.79429847 -1.0594547 2.0532327 0.22970489
1.0012906 -0.24530265 1.5809944 0.5422139 -0.48773232 0.94435954 -0.9857617 -0.28102022
-0.4669041 0.37080583 0.9070895 1.2647384 -1.0967712 -1.3302513 -0.860202 -0.43558612
-0.41027457 0.22193591 1.5930215 0.59216934 0.486393 0.08915697 -0.04725967 -1.7685331
-0.4838308 -1.5524181 2.2864952 0.50989056 0.28080815 -1.2551342 0.9314814 1.5769367
-0.72049844 -0.10541894 -0.30287957 0.6666786 2.301074 -0.19296418 -2.571057 0.18339764
-0.13414185 -2.230402 -0.78147596 -0.9059601 -0.1721758 -0.19209394 0.80845046 -0.23778355
1.8499657 -1.7446891 2.3812964 1.9091583 0.35104182 0.8516805 -0.5863366 0.40990564
0.13800618 1.1952611 1.230689 0.7058546 0.48354355 -0.09308798 -0.15327148 -0.953662
0.19366504 -0.11413998 -1.0842404 -1.6959847 0.8421817 -0.6608249 0.37114608 1.5020053
-0.2909948 -0.33965442 0.32835284 -0.027831733 0.18426977 -1.9508018 0.12982106 -0.29752722
-1.5712916 -0.47067028 -0.5069506 -0.5170673 -1.892001 -0.1077722 1.0855054 -2.1453667
0.3300964 -0.1949083 1.075048 -1.9864709 -0.4837553 -1.7865651 0.9739664 0.63333285
-0.5498014 0.76981145 1.2973832 0.7664661 1.1997513 -0.84703606 -1.0760403 -0.98865086
-0.43688673 -0.40037808 0.31203187 -0.8668736 -0.60701567 1.6402725 1.1635166 -0.5501269
0.036854994 -1.2080616 1.2403021 -0.09430736 -3.340332 -0.6593986 0.22760141 -0.3808742
1.219822 -0.2808546 -1.3786765 -0.09494406 -0.6862469 0.14492597 -0.38437113 -0.7627407
0.7839128 0.93277174 -4.317503 3.046631 -1.7560905 0.84490186 -0.8694307 0.18630816
0.5473591 0.5561609 -1.4111356 0.41220376 -0.4064464 0.92191577 0.0497796 -0.09141195
-0.38446102 -0.32782963 -0.606733 1.5345087 -0.67568886 -0.8426363 1.2624655 -0.6450817
0.24211477 0.6215245 0.023520142 -0.099530384 -0.089776814 1.4022242 -0.5255208 1.5402399
0.1210762 -0.7865178 -0.29113922 -0.23847762 0.5724743 -0.041686676 1.037346 -0.370609

pos_encoder.weight f4 [400, 4]
00000000: 3a7b b53e b243 42bf 223b 8f3c b452 c33e
00000010: 6a9b 81bf 1423 7abe 8d8a f3be d64d cf3f
00000020: 97db 503f cfb5 dfbf 4ca2 83bf 88f5 37bf
00000030: 19d2 fd3e 8750 abbf 592d a1bf 3ddd a93f
00000040: e51c 9abe 370d 713f 9f2a 8d3f e8ef 3dbf
00000050: 76ce 08bf 1f69 a3be 18da 943e 8c1d 4e3f
00000060: fd81 8abe ad1b 533d 0ba9 fb3c 1441 8b3f
00000070: 3d7e 7f3d 06ae 00bf 1a28 913e 5507 423f
00000080: 0bb9 c9bd ff5a 0f3f 8ad5 4abf f354 cfbe
00000090: e57d 663f 0b95 4a3f f8ed 8b3f 3dc2 c63d
000000a0: f769 2e3f 1d89 4abf 23f9 50bf 3c49 68bf
000000b0: 2dfb 893e 4123 1d3e ec10 7a3f b73b 7d3f
000000c0: 6937 f13f 693c bf3f f3f5 70bf 226c 9e3e
000000d0: 42e1 c4bd b114 4a3f 3c89 99bf e480 58bf
000000e0: 000e a73f 10cc a43f 6533 343f 01ae 05bf
000000f0: 6177 67be f3c8 b4bf 6346 4e3e 5360 713e
00000100: e374 a4be 7a0f 483f fd7a c13f acf9 6c3f
00000110: 9f53 5a3f 8330 143c 1dbe 69bf 5f99 10c0
00000120: d615 563e ad82 fdbf c534 27bf 47e6 c4bd
00000130: 2836 9cbf c1b9 5fbe b2f3 b0bf cf08 0d3f
00000140: 9657 d7be 7b04 873f d98d ab3f 5dad 013f
00000150: fa76 adbe 6d8b c5bd 5650 98be 3b57 853e
00000160: 639d babe f7ac 533f 97c3 4ebe e606 ba3c
00000170: ef97 b8bc 6a5a a1bf 284b 27bf 2e02 fcbf
00000180: 15c2 7940 5d6d 343e 348a a53f 546d 6bbe
00000190: 43fd 873e 0629 0f3f 0789 8bbf 6a38 3ebf
000001a0: db28 eb3e d6ed 93be 2326 673d 8889 313f
000001b0: 1247 d03e 2321 b2bf 60a6 c8bf 6c2e d4bd
000001c0: 0987 0bbf 9694 efbe 766f 8dbf e9ef d0bf
000001d0: e8fe 9abe 671a dfbe 5495 9c3f 5150 4bbf
000001e0: cdd8 b9be a7bb abbe 9e6e ecbe df6e 86be
000001f0: 82fe 8fbf 5cfc 84bf 613a 8ebf 25df 1a3d
00000200: 7619 68bf d0b9 0b40 c74a 45be 4061 a53f
00000210: edde 2dbe 7b46 173f 6909 10bf d24b ca3e
00000220: 3a90 00bf b30f c03f e1ed 843f e186 9c3f
00000230: 5965 fb3e f135 15bf 52f6 4f3f 1a85 c73d
00000240: 17c5 97bf afe2 b13d dab7 c1be 7d37 1bbe
00000250: 4ebe 0040 3149 debe 7842 28bf ebd8 bdbe
00000260: 44bc 853f ad27 fb3e cd73 6cbe 2278 f13e
00000270: bc16 7c3f edd1 8dbf 395b 65bf ab63 1b3f
00000280: cc65 963e 1bca dd3f bbc5 973f 7524 24bf
00000290: a242 fabe 6995 6cbf 57fc 49be dc38 1dbf
000002a0: 6688 b03f a1dd adbf fcbc 62be 4971 9a3f
000002b0: d509 83bf a0b0 0a3f 879d 85be 6eef 30bf
000002c0: 35bc a0be d2a5 eabf b750 de3e c7da 8cbe
000002d0: 8af4 61bd 8db6 88bf 7c78 c73e 65e7 5d3e
000002e0: d21f a3bf fc2e bc3f d2a2 ffbf d76c 623e
000002f0: 0005 62bf c0bd 0c40 98ee 2cbf e887 083e
00000300: 468a 153f db1c 20bf 96eb 8fbe 2774 1d3e
00000310: a93b c13f d1cf 793f b371 b43f d5fa 9ebd
00000320: efc3 283f ef61 2fc0 4ddd febe ddab 5a3f
00000330: 23e0 d3bf 8c9a 173f 5058 28bf 0658 5c3f
00000340: f6a4 853f c81c 813f fcc3 92bf b69d b53f
00000350: 1909 c63f 9219 9e3f 2491 25bf 01aa 99be
00000360: d0a7 a43f 203b 7c3e 10d8 373f 8e67 f63f
00000370: 874a 51bd a095 a8be 66e8 1bbf 59a5 9e3f
00000380: 3aa7 98be 389b 15bf 7b9e 76be 902c 0bbe
00000390: 8988 b83e f7e9 0540 1887 17be 1abc 0bbf
000003a0: 3f2a 8c3f 3468 e03f d2ac 133f d40d ddbe
000003b0: 7b3c 4ebf 07b9 973e d644 b7bf c845 193f
000003c0: 37ad 723e 6b02 0940 ac95 503f f873 bc3e
000003d0: 16ec 483f 8522 f53d 7cf2 2c3e 1a07 b3bf
000003e0: 89ca b8bf d426 08be 515c 783f 505f cb3f
000003f0: c922 1dbf c881 dbbe 4bf3 63bf 0748 8c3f
0.35445577 -0.75884545 0.017484251 0.38149035 -1.0125554 -0.24427444 -0.47566643 1.6195629
0.8158507 -1.7477359 -1.0283904 -0.71859026 0.49574354 -1.338395 -1.2591964 1.3270642
-0.3010017 0.9416079 1.1028632 -0.7419419 -0.53440034 -0.3191614 0.29072642 0.80513835
-0.27052298 0.051540066 0.030720254 1.0879235 0.06237625 -0.5026554 0.28350908 0.7579244
-0.09849747 0.55998224 -0.79232085 -0.404945 0.9003585 0.7913367 1.0931997 0.09705017
0.6813044 -0.7911547 -0.8163015 -0.90736747 0.26949444 0.1534548 0.9768207 0.9891924
1.8845035 1.4940311 -0.9412529 0.30941874 -0.09613277 0.7893782 -1.1995006 -0.8457167
1.3051147 1.2874775 0.7039092 -0.52218634 -0.22604133 -1.4123825 0.20144038 0.23571901
-0.32120427 0.78148615 1.5115658 0.9256847 0.85283846 0.009044769 -0.91305715 -2.259361
0.20906767 -1.9805504 -0.65314895 -0.096142344 -1.2204027 -0.21848203 -1.382437 0.55091566
-0.4205901 1.0548242 1.3402663 0.50655156 -0.33879834 -0.09645734 -0.2974879 0.26043114
-0.36448202 0.826858 -0.20191799 0.022708368 -0.022533385 -1.2605717 -0.65349054 -1.9688165
3.9024708 0.17619844 1.2932801 -0.22990924 0.2656041 0.5592197 -1.0901192 -0.7430483
0.45929608 -0.28892392 0.056432854 0.6935048 0.40679222 -1.3916363 -1.5675774 -0.10360417
-0.5450292 -0.4679305 -1.104964 -1.6323215 -0.30272603 -0.4357483 1.2233071 -0.7941943
-0.36298218 -0.33541605 -0.46178144 -0.26256463 -1.1249545 -1.0389514 -1.1111566 0.037810463
-0.9066385 2.183216 -0.19266807 1.2920303 -0.1697957 0.5909192 -0.5626436 0.3951097
-0.5022007 1.5004791 1.0385095 1.2228662 0.4910076 -0.58285433 0.8123523 0.09742184
-1.1857022 0.086858146 -0.3783558 -0.15157886 2.0116153 -0.43415216 -0.65726423 -0.37079558
1.0448079 0.49053708 -0.2309105 0.47161967 0.9847219 -1.1079689 -0.8959232 0.60698956
0.2937454 1.7327303 1.1857218 -0.6411813 -0.48878962 -0.9241548 -0.19725166 -0.61414886
1.3791625 -1.3583261 -0.22142404 1.2065822 -1.0237375 0.5417576 -0.26096746 -0.6911534
-0.3139359 -1.8331854 0.43420956 -0.27510664 -0.05516485 -1.068071 0.3895911 0.21670301
-1.2744086 1.4701838 -1.9971564 0.22111832 -0.8828888 2.1990814 -0.67551565 0.13333094
0.58414114 -0.6254403 -0.28109425 0.1537634 1.5096332 0.9758273 1.4097198 -0.07762686
0.6592397 -2.7403524 -0.49778214 0.8541849 -1.6552776 0.59220195 -0.65759754 0.86071813
1.0440967 1.0086908 -1.146606 1.4188755 1.5471526 1.2351553 -0.6467459 -0.30012515
1.2863712 0.2463193 0.7181406 1.9250352 -0.051096465 -0.32926655 -0.60901487 1.239421
-0.29815084 -0.5843997 -0.24083893 -0.13591218 0.36041668 2.092405 -0.14797628 -0.54583895
1.0950392 1.75318 0.5768558 -0.43174613 -0.80561036 0.29633352 -1.4317882 0.598721
0.23698889 2.1407726 0.8147838 0.36807227 0.7848524 0.11969475 0.16889375 -1.3986542
-1.4436809 -0.13296062 0.97015864 1.5888462 -0.613812 -0.42872453 -0.8904311 1.0959481

transformer_encoder.layers.0.self_attn.in_proj_weight f4 [12, 4]
00000000: e705 473d cd9f 663b 5188 2e3e 1f30 a0be
00000010: ac67 c7be f4a4 d53a 4b44 a53c 6157 d83e
00000020: 4e2e 2b3f 550f 80bd 7038 abbd 34a0 803e
00000030: 3cb4 983d f436 6a3e 3a98 0a3d 1357 7f3c
00000040: 0674 2dbf b2aa fa3e 9ff4 a9bc a2f5 0b3e
00000050: b775 d73e 67b9 42be 8b0c 10be e822 c6be
00000060: 4e5b 2abe aab6 ea3e f251 a83e 1561 8cbe
00000070: 99b4 63be 7b0f c2be 6f32 c1be 11f0 1c3e
00000080: 855c febe 8710 fbbe 5da8 8a3f eec5 f0be
00000090: e23e 6dbe 5d5d fabe f4e8 8d3f 30de 94bf
000000a0: d1d5 93bf 68d9 00bf 3c66 803f 27f2 48bf
000000b0: d47a 54bf 0d84 60bf 1e90 653f b31e 31bf
0.048589613 0.0035190464 0.17044188 -0.31286713 -0.38946283 0.001629977 0.020174166 0.42254165
0.6686753 -0.06252924 -0.08360374 0.25122225 0.07456252 0.22872525 0.03383658 0.015584725
-0.6775516 0.48958355 -0.020746527 0.1366792 0.42081997 -0.19016038 -0.14067285 -0.38698506
-0.16636392 0.45842487 0.3287502 -0.27417818 -0.22236861 -0.37902436 -0.3773379 0.15325953
-0.49679962 -0.49036047 1.083263 -0.47026008 -0.23168519 -0.48899356 1.1086717 -1.1630306
-1.1549627 -0.50331736 1.00312 -0.78494495 -0.8299992 -0.87701494 0.8967303 -0.6918747

transformer_encoder.layers.0.self_attn.in_proj_bias f4 [12]
00000000: 75bd 96bc 452b 8c3c b246 95bd 9e93 ea3c
00000010: f7ee 34bd dd9d bb3b de77 0dbd 1371 1ebe
00000020: 1c0d 12bd b6d7 b8bd 18fd 39bc 549e 16bd
-0.018400887 0.017110476 -0.07288875 0.028634842 -0.044173207 0.005725606 -0.034538142 -0.15472822
-0.035657033 -0.090255186 -0.011351846 -0.036772087

transformer_encoder.layers.0.self_attn.out_proj.weight f4 [4, 4]
00000000: 8576 55be 5b98 40bf 968e 7abf 0c84 57bf
00000010: b6b4 b13e 1ecc 6ebf 22f2 b0bf fc0f 5dbf
00000020: 4b5d 053f e012 8f3f 4ebb 6e3f c5e0 9c3f
00000030: 07b8 47bf fd00 f7be 36e6 51bf 8207 81bf
-0.20845993 -0.75232476 -0.9787382 -0.8418586 0.34708184 -0.9328021 -1.3823893 -0.86352515
0.5209548 1.1177635 0.93254554 1.2256094 -0.7801518 -0.48242941 -0.819919 -1.0080416

transformer_encoder.layers.0.self_attn.out_proj.bias f4 [4]
00000000: 74c7 063d f648 fbbc a440 bb3c a5a7 f53b
0.032905057 -0.030674439 0.022857971 0.0074967914

transformer_encoder.layers.0.linear1.weight f4 [4, 4]
00000000: b9b7 9b3e 5d0a ed3e 7f28 2a3e b535 e73e
00000010: 8983 50be d98c 05be dbe1 303e 793f 7abc
00000020: 95fa d73e d0d1 12bf 1466 d5be 706e 9c3e
00000030: 5325 653e abed 2b3d c12f 473d f96e de3d
0.30413607 0.4629697 0.1661701 0.45158163 -0.20362677 -0.1304201 0.17273657 -0.015273922
0.42183366 -0.573514 -0.41679442 0.30553007 0.2237752 0.041974705 0.048629526 0.1086101

transformer_encoder.layers.0.linear1.bias f4 [4]
00000000: a99c 7cbe efcf 9a3d f5f4 d13d ad15 c1be
-0.24669136 0.075591914 0.102518 -0.3771185

transformer_encoder.layers.0.linear2.weight f4 [4, 4]
00000000: 3c0e 80bd 4e78 b0be 3e57 aa3e edfa 8cbe
00000010: da3a c13d 3e72 e2be 4d29 763f bd6f c33e
00000020: 3de2 a7bd 6f84 0cbe 2eff a0bd 2f30 b63e
00000030: ddb0 9dbd e298 dfbe 8ffe ce3e c43a 963e
-0.06252715 -0.34466785 0.33269686 -0.2753519 0.09435053 -0.44227785 0.9615677 0.38171187
-0.081974484 -0.13722394 -0.07861172 0.35583636 -0.076997496 -0.43671328 0.40428588 0.2934171

transformer_encoder.layers.0.linear2.bias f4 [4]
00000000: d8a0 6f3e ea84 b2be cc68 343d 8e90 8b3e
0.23401201 -0.3486703 0.044045255 0.27258724

transformer_encoder.layers.0.norm1.weight f4 [4]
00000000: 40e2 9f3f 507c 503f dc8c 3140 ff7c 733f
1.2490921 0.81439686 2.7742224 0.95112604

transformer_encoder.layers.0.norm1.bias f4 [4]
00000000: 3a88 16bd cb6d ff3d 1297 a83c 9a03 60bd
-0.03675101 0.12472113 0.020579848 -0.054690935

transformer_encoder.layers.0.norm2.weight f4 [4]
00000000: 3d4f fc3f 0ef4 0040 3d5a be3f aa95 ef3f
1.9711682 2.014896 1.4871289 1.8717549

transformer_encoder.layers.0.norm2.bias f4 [4]
00000000: c97e fabc 0d4f 9bbd bd31 21bc 57dc d33c
-0.030578034 -0.07583437 -0.009838519 0.025861902

fc.weight f4 [2, 4]
00000000: 00bc 833f e030 6d3f 953e 5abf a209 023f
00000010: d815 0cbf 7939 16bf 3f00 033c af03 78bf
1.0291748 0.926527 -0.8525174 0.5079595 -0.5472083 -0.58681446 0.007995664 -0.9688062

fc.bias f4 [2]
00000000: aed1 5e3e 545a f83d
0.21759674 0.12126604
