model_weights/checkpoint_sae_ce.pt (torch, 2900 bytes, 2 tensors)

W f4 [4, 64]
0	0x3eb9d6c8	0.36296678
1	0x3f0a57f2	0.54040444
2	0x3f3b71ec	0.73220706
3	0x3c43df25	0.011955057
4	0x3ec14c62	0.37753588
5	0x3f0a5002	0.5402833
6	0x3ccb4917	0.024815125
7	0x3eac0f8b	0.33605608
8	0x3ed9607d	0.42456427
9	0x3e35d653	0.1775754
10	0x3e496ce6	0.19670448
11	0x3f019f00	0.5063324
12	0x3f33e245	0.70267135
13	0xbda598f2	-0.08085813
14	0x3e6bdf5b	0.23034422
15	0xbded7b27	-0.11595755
16	0x3f4d9462	0.8030454
17	0x3f6270fd	0.88453656
18	0x3f5769be	0.84145725
19	0x3f274927	0.65345997
20	0x3eceb236	0.4037034
21	0xbd262fd5	-0.04057296
22	0xbe4378da	-0.1908907
23	0x3e98a596	0.29813832
24	0x3e8d1c84	0.27560818
25	0x3e09d80c	0.13461322
26	0x3e537097	0.20648418
27	0xbc221f1d	-0.009895113
28	0x3e43c965	0.19119795
29	0xbe0c1909	-0.13681425
30	0x3f62a262	0.88529027
31	0x3f2a76a6	0.66587293
32	0x3f49df11	0.78856
33	0x3e8ff966	0.28119963
34	0x3ef0c807	0.4702761
35	0x3f136202	0.57571423
36	0xbe99544e	-0.29947132
37	0x3e93d029	0.2886975
38	0x3db3ef5e	0.0878589
39	0x3ed83879	0.42230585
40	0x3f3a2479	0.727119
41	0x3f0c697d	0.5484846
42	0x3e70c0a3	0.23510985
43	0x3f3868ea	0.72035086
44	0xbe46ddc2	-0.19420531
45	0x3f3e2872	0.74280465
46	0x3ea90b43	0.33016405
47	0x3f0e3367	0.55547184
48	0x3c7929f1	0.0152077535
49	0x3eeccdb8	0.462507
50	0x3f0193b1	0.50615984
51	0x3ee4ae82	0.4466439
52	0x3f788358	0.97075415
53	0xbc836bc5	-0.0160426
54	0x3f500c80	0.81269073
55	0x3f2b0ed5	0.66819507
56	0x3ea71fec	0.32641542
57	0x3ed6ffa4	0.41991913
58	0x3f0a1113	0.53932303
59	0x3ec466ea	0.38359767
60	0x3f194228	0.5986657
61	0x3e9bbc07	0.3041689
62	0x3e7e0166	0.24805221
63	0xbe542d4d	-0.20720406
64	0x3e7b4dca	0.24541393
65	0x3f34cdae	0.7062634
66	0x3f341472	0.703437
67	0x3f0180ce	0.50587165
68	0x3f55e53e	0.8355292
69	0x3eab7ff5	0.3349606
70	0x3e574b29	0.21024765
71	0x3f087816	0.53308237
72	0x3f50697e	0.8141097
73	0x3f27c305	0.6553195
74	0x3f0a4650	0.5401354
75	0x3f0f47f9	0.55969197
76	0x3f0b5caf	0.544383
77	0x3eac7356	0.33681744
78	0x3e24623f	0.16053103
79	0x3ecb16d7	0.39665863
80	0x3f2385ee	0.63876235
81	0x3f5874c4	0.8455317
82	0x3f830811	1.0236837
83	0x3f671cb4	0.9027817
84	0x3f2bc3af	0.67095464
85	0xbed55cea	-0.4167245
86	0xbed66c75	-0.4187962
87	0x3e62459e	0.2209687
88	0x3ee35496	0.4440047
89	0x3ebb4e1b	0.36583027
90	0x3eddafb9	0.43298128
91	0xbdc0ea47	-0.09419685
92	0x3e420a6e	0.18949291
93	0x3ec8a5cb	0.3918899
94	0x3f88fe2f	1.0702571
95	0x3ee1942a	0.44058353
96	0x3f449590	0.76790714
97	0x3ed01108	0.40637994
98	0x3f0702f1	0.52738863
99	0x3f2ed54c	0.68294215
100	0xbd00a70a	-0.0314093
101	0x3f3a7068	0.7282777
102	0x3ea110b7	0.31458065
103	0x3f09ee72	0.53879464
104	0x3f826d02	1.0189517
105	0x3f4b52d8	0.79423285
106	0x3ef58736	0.4795472
107	0x3f02887c	0.5098951
108	0xbdcec190	-0.10095513
109	0x3f4c47f1	0.79797274
110	0x3f2dfc8c	0.6796348
111	0x3e981db1	0.29710153
112	0x3e307f84	0.17236143
113	0x3ed950ee	0.42444557
114	0x3f18bebd	0.59666044
115	0x3f3a0ec4	0.7267878
116	0x3f4841b9	0.78225285
117	0x3e06f531	0.1317947
118	0x3f580242	0.84378445
119	0x3eca12dd	0.39467517
120	0x3f2cce6f	0.6750249
121	0x3ed92f9f	0.42419145
122	0x3ed801b1	0.4218879
123	0x3eee39f4	0.4652859
124	0x3f20c1d4	0.6279576
125	0x3ecd0b27	0.4004757
126	0x3e68436d	0.22681971
127	0x3eb1187e	0.34589
128	0x3e2c4b38	0.16825569
129	0x3edea3f1	0.43484452
130	0x3f285f14	0.6577008
131	0x3ee23aa7	0.44185373
132	0x3ea4bca9	0.32175186
133	0x3e84fcf8	0.2597425
134	0x3eef7397	0.46767876
135	0x3f16989c	0.58826613
136	0x3f4e2352	0.80522645
137	0x3f46a254	0.77591443
138	0x3f16d315	0.58915836
139	0x3dd15e4c	0.10223064
140	0x3ec30c50	0.3809533
141	0x3e8e7b27	0.27828333
142	0x3e80d0bb	0.2515925
143	0x3ea7542f	0.32681414
144	0x3e0ba7c9	0.13638224
145	0x3f045a58	0.51700354
146	0x3f22deb8	0.6362109
147	0x3f01e1dc	0.5073526
148	0x3ee2c83f	0.442934
149	0xbeb55416	-0.35415715
150	0xbeb85fae	-0.36010498
151	0x3e690535	0.22755893
152	0x3e6e4df5	0.23271926
153	0xbe12fea3	-0.14354949
154	0x3eb0b333	0.34511718
155	0xbddf5f16	-0.10906808
156	0xbe22a285	-0.15882309
157	0x3f004872	0.5011054
158	0x3eda276f	0.4260821
159	0x3d3e05be	0.046392195
160	0x3f33e8b5	0.7027696
161	0xbe44a28a	-0.19202629
162	0x3eda238b	0.42605242
163	0x3e0acf95	0.13555749
164	0xbeb63052	-0.3558374
165	0x3eb0ab25	0.34505573
166	0x3f064dd5	0.5246251
167	0x3e6337b0	0.22189212
168	0x3f1d6572	0.6148292
169	0x3d9811fb	0.074253045
170	0x3f113a90	0.56729984
171	0x3f01be79	0.50681263
172	0x3d58cdbc	0.05293058
173	0x3e94e9ce	0.2908463
174	0x3f22cfc9	0.63598305
175	0xbe26fe0a	-0.16307846
176	0xbdfe4345	-0.124151744
177	0x3e7e50be	0.24835488
178	0x3f22be5e	0.6357173
179	0x3ed7cb77	0.4214742
180	0x3ef3c7d3	0.4761339
181	0x3dff3e4b	0.12463053
182	0x3e95e250	0.29274225
183	0x3ea7d638	0.32780623
184	0x3f0bf800	0.5467529
185	0x3f02169e	0.5081576
186	0xbe176aa0	-0.14786768
187	0x3c9ff706	0.01952697
188	0x3f06e535	0.5269349
189	0x3f187317	0.59550613
190	0x3ea732ce	0.32655948
191	0x3eca7c2c	0.3954786
192	0xbc734422	-0.014847787
193	0x3ef2c455	0.47415414
194	0x3e25baeb	0.16184585
195	0x3f212f72	0.6296302
196	0x3f57b4a8	0.84260035
197	0xbdb86f1f	-0.0900557
198	0x3dadb78e	0.08482276
199	0x3e949e92	0.2902723
200	0x3f140428	0.5781884
201	0x3f0d23f9	0.55133015
202	0x3ede0973	0.43366584
203	0x3ecf426f	0.40480372
204	0x3d391dbe	0.04519438
205	0x3f03d1de	0.51492107
206	0xbdade6a1	-0.084912546
207	0x3f2a1f8d	0.6645439
208	0x3e7323f7	0.23744188
209	0x3eaa8053	0.3330103
210	0x3f20910a	0.6272131
211	0x3f296671	0.6617194
212	0x3f0ab398	0.5418029
213	0xbefd8999	-0.4951904
214	0xbeb8c5a2	-0.36088282
215	0xbcdc5d65	-0.026900003
216	0x3ec1e72d	0.37871686
217	0x3f0fbe7f	0.5615005
218	0x3ebf243c	0.37332332
219	0xbdcd9c46	-0.100395724
220	0x3c9ad703	0.018901354
221	0x3f09f4d0	0.5388918
222	0x3f40aa5c	0.7525995
223	0x3d91a49c	0.07111475
224	0x3e4fb3c4	0.20283419
225	0x3efef8b4	0.4979912
226	0x3e78191d	0.2422833
227	0x3f07d35c	0.53056884
228	0x3ed6ff28	0.41991544
229	0x3f5001e0	0.8125286
230	0x3e35c094	0.17749244
231	0x3ecd1305	0.40053573
232	0x3f3d382d	0.7391384
233	0x3f464e9c	0.774637
234	0x3e9c2dc3	0.30503663
235	0xbdd149a1	-0.10219122
236	0xbcc3934f	-0.023873953
237	0x3efc3921	0.49262336
238	0x3f06ecb9	0.5270496
239	0x3dea58d0	0.11442721
240	0x3eacffd5	0.33788934
241	0x3e20a31e	0.15687224
242	0x3e52a17d	0.20569415
243	0x3f1ae4b2	0.6050521
244	0x3e17983a	0.14804164
245	0x3e31ec6b	0.17375343
246	0x3f004d06	0.5011753
247	0xbc50bc61	-0.0127402255
248	0x3f12a687	0.5728535
249	0x3d5a5e6d	0.053312708
250	0x3e7daf64	0.24773937
251	0x3ecddba8	0.40206647
252	0x3e8abc41	0.2709675
253	0x3ec1b956	0.37836713
254	0xbccfe15d	-0.025376016
255	0x3f15a757	0.58458465

b f4 [64]
0	0xbd100036	-0.03515645
1	0x3cd72f5d	0.026267702
2	0xbc1239ea	-0.008924941
3	0xbde319ba	-0.11088891
4	0xbdc6501f	-0.09683251
5	0xbd5a7d49	-0.053342137
6	0xbdecfc56	-0.11571567
7	0xbcb537df	-0.022121368
8	0xbcb8663c	-0.022509687
9	0xbddc0109	-0.10742385
10	0xbd6b75ae	-0.057485275
11	0xbd108150	-0.035279572
12	0xbd01f4fd	-0.03172778
13	0xbdd90a09	-0.10597617
14	0xbd198f24	-0.037490025
15	0xbe2f0e62	-0.1709533
16	0xbd73476a	-0.059394278
17	0xbc6f7035	-0.014614155
18	0x3d297149	0.041367803
19	0x3d083d66	0.03326168
20	0x3d121afe	0.035670273
21	0xbde2c402	-0.11072542
22	0xbd7f96e1	-0.06239975
23	0xbcb9dd10	-0.022688419
24	0x3c0050a9	0.007831731
25	0xbdb93d94	-0.09044948
26	0x3b873d91	0.0041272123
27	0xbcd61089	-0.026130931
28	0xbe7bc6e5	-0.24587591
29	0xbe335160	-0.17511511
30	0xbc1bae0e	-0.009501947
31	0xbd9080fc	-0.07055852
32	0xbc50e095	-0.012748857
33	0xbdb4be24	-0.08825329
34	0x3c187c1c	0.009306934
35	0xbcfdad55	-0.03096644
36	0xbe1a50d8	-0.15069902
37	0xbd1f1448	-0.0388377
38	0xbdc8e815	-0.09809891
39	0xbc4e23f8	-0.012581818
40	0x3d41bb8d	0.047298003
41	0xbd848e1f	-0.0647242
42	0xbd374d26	-0.04475131
43	0xbd3306f4	-0.043707803
44	0xbdce73df	-0.100806944
45	0xbc8978ba	-0.0167812
46	0xbc38bbc9	-0.01127524
47	0xbe57ef98	-0.21087492
48	0xbd8bf2b0	-0.06833398
49	0xbc8bfdb0	-0.017088741
50	0xbb8e6f63	-0.0043467744
51	0x3caedc54	0.021345295
52	0xbd9d7c5e	-0.07689737
53	0xbd2fa423	-0.042881142
54	0xbceb5c3f	-0.02873051
55	0xbe34be36	-0.17650685
56	0x3bf619b2	0.0075103873
57	0xbce2aa22	-0.027669016
58	0xbdc1ce66	-0.094631955
59	0xbd46532f	-0.048419174
60	0xbcba2092	-0.022720609
61	0xbe8ec5f9	-0.27885416
62	0xbd0a8f38	-0.03382799
63	0xbe439065	-0.19098051
