model_weights/checkpoint_ksae_ce.pt (torch, 2906 bytes, 2 tensors)

W f4 [4, 64]
0	0x3f1e93b7	0.61944145
1	0x3ef79d27	0.48362085
2	0x3ecf2428	0.40457273
3	0x3b9c6966	0.0047733067
4	0x3cda14d2	0.026621256
5	0x3f002154	0.50050855
6	0x3edecac8	0.43514085
7	0x3efa60be	0.48901933
8	0x3ea44f1a	0.320916
9	0x3ed31ec1	0.412344
10	0x3e068672	0.13137224
11	0xbe31b230	-0.1735313
12	0x3eb1cf5c	0.34728515
13	0x3f056085	0.521004
14	0x3f41e8fd	0.75746137
15	0x3eb277ca	0.34857017
16	0x3efe6ea5	0.4969379
17	0x3f0ff89e	0.56238735
18	0x3f021a1e	0.508211
19	0x3f08793c	0.5330999
20	0x3ea83434	0.32852328
21	0x3ec7993e	0.38984102
22	0x3edab188	0.4271357
23	0x3d25e19b	0.040498357
24	0xbecf097e	-0.4043693
25	0x3f0d8ebd	0.55295926
26	0x3ebbb685	0.3666269
27	0x3ee8cc3e	0.45468324
28	0xbf343d9d	-0.70406514
29	0x3ee7f73b	0.4530581
30	0x3f119dc4	0.56881356
31	0x3eae5e7d	0.34056464
32	0x3f01217a	0.50441706
33	0x3f22581c	0.63415694
34	0x3ea5d734	0.3239075
35	0xbe33934e	-0.17536661
36	0x3efcc228	0.4936688
37	0x3f03a390	0.5142145
38	0x3eadd1df	0.3394918
39	0x3f00b92f	0.5028257
40	0x3f24a427	0.64312977
41	0x3eb624d7	0.35574982
42	0x3f042cf1	0.51631075
43	0x3ed00fb0	0.4063697
44	0x3e64dff4	0.22351056
45	0x3eabf7be	0.3358745
46	0x3edf9aa2	0.43672663
47	0xbebe0583	-0.3711358
48	0x3f04e327	0.51909107
49	0x3f1ed00d	0.6203621
50	0x3e4836e5	0.1955219
51	0x3f249c60	0.6430111
52	0x3ecbd036	0.3980729
53	0x3ece3c05	0.40280166
54	0x3ee0095c	0.4375714
55	0x3ebe039c	0.3711213
56	0x3f0681e7	0.52541965
57	0x3ee3c866	0.4448883
58	0x3efe102d	0.49621716
59	0x3f343ed1	0.7040835
60	0x3eac2519	0.33622053
61	0x3eaf6336	0.3425538
62	0x3ec67a0e	0.38764995
63	0x3f181fbb	0.59423417
64	0x3f193647	0.59848446
65	0x3eff7450	0.49893427
66	0x3ecb2cbe	0.39682573
67	0x3b90dec9	0.0044210893
68	0x3ceb3bde	0.02871507
69	0x3efb1709	0.49041012
70	0x3edb2b17	0.42806312
71	0x3ef5a916	0.47980565
72	0x3ea0f271	0.31434968
73	0x3ebf514d	0.37366715
74	0x3dfe5a80	0.12419605
75	0xbe364f47	-0.1780368
76	0x3eadb1cf	0.3392472
77	0x3f0416fa	0.5159756
78	0x3f3d53f2	0.73956215
79	0x3eaeaccd	0.34116212
80	0x3f075f4a	0.52879775
81	0x3f0c7eb7	0.5488085
82	0x3f01241a	0.5044571
83	0x3f05b397	0.5222716
84	0x3ea53c61	0.32272628
85	0x3ec49281	0.38393024
86	0x3ec8f6ee	0.39250892
87	0x3d426079	0.047455285
88	0xbecb3f92	-0.39696938
89	0x3f0ab374	0.54180074
90	0x3ed37def	0.41307017
91	0x3ee3a963	0.4446517
92	0x3f35bd29	0.7099176
93	0x3ee30a4a	0.44343787
94	0x3f124044	0.5712931
95	0x3eaebebf	0.34129903
96	0x3edf17be	0.435728
97	0x3f1fdb20	0.62443733
98	0x3ea26390	0.31716585
99	0x3def1be1	0.11675239
100	0x3eeeb05d	0.4661893
101	0x3ee881c9	0.45411518
102	0x3eaa0563	0.33207235
103	0x3efbd108	0.49182916
104	0x3f283973	0.6571266
105	0x3eb1a18f	0.34693572
106	0x3f0180d8	0.50587225
107	0x3eedefd4	0.46472037
108	0x3e61beae	0.22045395
109	0x3ec5597a	0.38544828
110	0x3ec327ee	0.381164
111	0xbec07e85	-0.37596527
112	0x3f02b445	0.5105632
113	0x3f0b3c25	0.5438865
114	0x3e4b8eef	0.19878744
115	0x3f26ce20	0.6515827
116	0x3ec26e79	0.3797491
117	0x3ef1cf24	0.47228348
118	0x3edc46ee	0.43022865
119	0x3ec09b71	0.37618592
120	0x3edb3dcb	0.42820582
121	0x3edeeaf9	0.43538645
122	0x3eff8818	0.4990852
123	0xbf35c8e6	-0.7100967
124	0x3ea8a26f	0.32936427
125	0x3eabcd56	0.33555096
126	0x3ecb70fe	0.39734644
127	0x3f1500b3	0.5820419
128	0x3f50ba8f	0.81534666
129	0x3f28cec0	0.65940475
130	0x3d621669	0.055197153
131	0x3b9e59a8	0.004832465
132	0x3d0fb6df	0.03508651
133	0x3f29fb72	0.663993
134	0x3f1436c0	0.5789604
135	0x3f2678ab	0.65027875
136	0x3ed9c1e2	0.42530733
137	0x3f013bd0	0.5048189
138	0x3e257c1f	0.1616063
139	0xbe877cee	-0.264625
140	0x3eeb62a2	0.45973688
141	0x3f2a30f4	0.66480947
142	0x3f7f42dc	0.99711394
143	0x3eec7393	0.46181926
144	0x3f00614a	0.5014845
145	0x3f313c27	0.6923241
146	0x3f2ce955	0.67543536
147	0x3f34aa14	0.7057202
148	0x3edf8706	0.43657702
149	0x3f0478fa	0.51747096
150	0x3f050009	0.5195318
151	0x3d71fbcd	0.059078027
152	0xbd623285	-0.05522396
153	0x3f3bed47	0.7340893
154	0x3ef71cd3	0.4826418
155	0x3f1a5f17	0.60301346
156	0x3bbfa6cb	0.0058487407
157	0x3f198185	0.59963256
158	0x3f4613c5	0.77373916
159	0x3edf4d48	0.43613648
160	0x3f11128e	0.5666894
161	0x3f58a65a	0.8462883
162	0x3edbe4c8	0.42947984
163	0xbdcd1d28	-0.10015327
164	0x3f1ff750	0.62486744
165	0x3f44fe1b	0.76950234
166	0x3ee63993	0.449658
167	0x3f2ab85d	0.66687566
168	0x3f60632d	0.8765133
169	0x3eebdbed	0.46066228
170	0x3f2f732a	0.685351
171	0x3f110142	0.56642544
172	0x3e99a6f9	0.30010203
173	0x3ef66b11	0.4812856
174	0x3f002f83	0.500725
175	0x3f4a24eb	0.7896258
176	0x3f2de0db	0.6792123
177	0x3f3767fd	0.7164305
178	0x3e98b1bd	0.29823104
179	0x3f4523be	0.77007663
180	0x3f04e50f	0.51912016
181	0x3f23d2d3	0.6399357
182	0x3f14b6a9	0.5809122
183	0xbf4a2464	-0.7896178
184	0x3f283af7	0.65714973
185	0x3f16f852	0.58972657
186	0x3f11aca8	0.5690408
187	0xbbc0180b	-0.005862241
188	0x3ee42b8b	0.4456447
189	0x3ee80bdf	0.45321557
190	0x3f03703f	0.5134315
191	0x3f482ede	0.78196514
192	0x3f265590	0.6497431
193	0x3f11b89d	0.5692232
194	0xbf527141	-0.8220406
195	0x3b9ff0ed	0.0048810155
196	0x3cdcafe5	0.026939342
197	0x3f06faa7	0.52726215
198	0x3eeaf32f	0.4588866
199	0x3f046fb0	0.5173292
200	0x3ead0b7b	0.3379782
201	0x3ee2a4d4	0.4426638
202	0x3e0786c6	0.13235006
203	0xbe425511	-0.18977763
204	0x3ebb43d8	0.36575198
205	0x3f122d70	0.5710058
206	0x3f4b6d7b	0.7946393
207	0x3ebc2e49	0.36754063
208	0x3f227e87	0.63474315
209	0x3f20925f	0.62723345
210	0x3f0a117e	0.5393294
211	0x3f0f543c	0.55987906
212	0x3eb1a391	0.34695104
213	0x3ed33963	0.4125472
214	0x3ed95be8	0.4245293
215	0x3d336526	0.043797635
216	0x3f525e53	0.8217518
217	0x3f150e4b	0.58224934
218	0x3ec14529	0.37748078
219	0x3ef51459	0.47867087
220	0xbb65ba3e	-0.0035053636
221	0x3ef4ab5e	0.47786993
222	0x3f1df081	0.61695105
223	0x3eb5016a	0.3535264
224	0x3eee7a57	0.46577713
225	0x3f2b4c39	0.6691318
226	0x3eaee3fe	0.3415832
227	0xbcca7966	-0.02471609
228	0x3f0c8afa	0.5489956
229	0x3ebeeccf	0.37290046
230	0x3eb70dcc	0.35752714
231	0x3f0793b1	0.52959734
232	0x3f3c3927	0.7352471
233	0x3ebb5783	0.36590204
234	0x3f0b6507	0.5445103
235	0x3edd04ab	0.43167624
236	0x3e736c20	0.23771715
237	0x3ebfa567	0.3743088
238	0x3ed78ac1	0.42098048
239	0xbe9f66c2	-0.31133085
240	0x3f12c51c	0.57332015
241	0x3f11d3d5	0.56963855
242	0x3e60acec	0.21940964
243	0x3f351939	0.7074161
244	0x3ed5514c	0.41663587
245	0x3ef0fd34	0.4706818
246	0x3eeb75d4	0.45988333
247	0x3e9f6c24	0.31137192
248	0x3f0a1fbe	0.53954685
249	0x3eeff447	0.46866056
250	0x3eef48b1	0.46735147
251	0x3b73c5cd	0.0037196756
252	0x3eb5a0d7	0.35474274
253	0x3eb8b35c	0.3607434
254	0x3ecef2c6	0.40419596
255	0x3f20ad0f	0.62764066

b f4 [64]
0	0xbe0332b5	-0.12812312
1	0xbdf958cb	-0.12175139
2	0x3795db12	1.7864197e-05
3	0xbb4cf074	-0.003127125
4	0xbc1b3d23	-0.009475025
5	0x3d2dfb06	0.042475723
6	0x3d0026c8	0.031286985
7	0x3c52bc75	0.0128623145
8	0x3cd171be	0.025566932
9	0xbddc2849	-0.10749871
10	0xbcd77f7c	-0.026305906
11	0x3dabce4a	0.08388956
12	0x3cf0a29f	0.029374419
13	0xbd9b3cb6	-0.07579939
14	0x3d330dc4	0.0437143
15	0x3cc9a548	0.024614945
16	0xbf234615	-0.6377881
17	0xbe204206	-0.15650186
18	0x3ca2c60d	0.019869829
19	0x3d184048	0.03717068
20	0x3caf8425	0.021425316
21	0x3c7ec471	0.015549765
22	0xbd8c12f7	-0.06839555
23	0xbcb2926c	-0.021798335
24	0xb936ba3f	-0.00017426255
25	0x3d1025ac	0.035192177
26	0xbe3560e4	-0.17712742
27	0x3d2185d6	0.039434277
28	0x3a57abcf	0.00082272006
29	0x3d076023	0.033050667
30	0xbca3aa57	-0.019978685
31	0xbcd5c702	-0.02609587
32	0xbe42f0b0	-0.19037127
33	0x3d2b3483	0.041798126
34	0x3cd70926	0.02624948
35	0xbf8b0c0e	-1.0863054
36	0xbdf1eab2	-0.11812343
37	0xbf207e2c	-0.62692523
38	0x3cf033ee	0.029321637
39	0x3d35acc6	0.044354223
40	0xbe14fd9f	-0.14549874
41	0xbc16fe6c	-0.009215932
42	0x3d2ef4f3	0.04271407
43	0xbe39aab9	-0.18131532
44	0x3b9d3cbe	0.004798501
45	0xbe0cae15	-0.13738282
46	0xbe0dd066	-0.13849029
47	0x3aeb3ca8	0.0017947154
48	0xbdb7c111	-0.08972371
49	0xbe552ac0	-0.20817089
50	0xbda22f4e	-0.07919179
51	0xbe66e70b	-0.22549073
52	0xbccf443d	-0.025301093
53	0xbe90effb	-0.2830809
54	0x3cfc3823	0.030788487
55	0xbadbc2fb	-0.0016766483
56	0xbe672207	-0.22571574
57	0x3d22a7a9	0.039710674
58	0xbe64a2ee	-0.22327778
59	0xb9f45234	-0.00046600553
60	0x3cdddbea	0.027082402
61	0x3cd494ed	0.02594992
62	0xbd5a4d94	-0.05329664
63	0x3cfaf759	0.030635523
