model_weights/checkpoint_ksae_ce.pt (torch, 2906 bytes, 2 tensors)

W f4 [4, 64]
0	0x3e65e48f	0.2245047
1	0xbda55069	-0.08071978
2	0x3de9c5d7	0.11414688
3	0x3dac4e9d	0.08413432
4	0x3ed3ee2f	0.41392657
5	0x3f030054	0.51172376
6	0x3f56f487	0.8396687
7	0x3f4b5e8f	0.7944116
8	0x3ecf7b0a	0.4052356
9	0x3f1c6f25	0.61107093
10	0x3e090dd2	0.13384178
11	0x3ee3a633	0.44462737
12	0x3ee51045	0.44738975
13	0x3eec79bb	0.46186623
14	0xbe742be0	-0.23844862
15	0x3ef884b1	0.48538736
16	0x3e0b5cf1	0.13609673
17	0x3ee446ee	0.44585365
18	0x3f0a1d14	0.5395062
19	0x3f822a70	1.0169201
20	0x3e375a17	0.1790546
21	0x3f6338fb	0.8875882
22	0x3f210be6	0.6290878
23	0x3f281432	0.65655816
24	0x3dc3cf5a	0.095610335
25	0x3f275664	0.65366197
26	0xbe8849e2	-0.26618868
27	0x3d44a5cd	0.048009682
28	0x3f1776d4	0.5916569
29	0x3db2c505	0.08728985
30	0x3f34f68e	0.7068871
31	0x3f02add0	0.51046467
32	0x3cebd689	0.028788822
33	0x3eb23b6e	0.34810966
34	0x3f1dcc1e	0.61639583
35	0x3e70d3f1	0.23518349
36	0x3eec5d5a	0.46164972
37	0xbe1d7441	-0.15376379
38	0x3f540ff0	0.8283682
39	0xbe555821	-0.208344
40	0x3f5d8e91	0.86545664
41	0x3e8c7f4b	0.27440867
42	0x3f319ad9	0.69376904
43	0x3f0bc6f6	0.54600465
44	0x3f1933c1	0.59844595
45	0x3f2bafe1	0.67065245
46	0x3eb73b62	0.35787493
47	0x3e5bf8cc	0.21481627
48	0x3e899660	0.2687254
49	0x3ec2b03c	0.3802508
50	0x3f2e7332	0.68144524
51	0x3ef2d818	0.4743049
52	0x3f23fa8d	0.64054185
53	0x3f326ffd	0.6970213
54	0x3f0dac50	0.55341053
55	0x3f82bb62	1.0213435
56	0x3efee780	0.49785995
57	0xbf2da949	-0.67836434
58	0x3e45e4a3	0.19325499
59	0x3ea14153	0.3149515
60	0x3eead5b1	0.4586616
61	0x3e84bfd7	0.25927612
62	0x3e92b22c	0.2865156
63	0x3f285638	0.6575656
64	0x3eef0848	0.46686006
65	0xbef605a8	-0.4805119
66	0x3e88986b	0.26678786
67	0x3f08c2ea	0.53422415
68	0x3efacc9d	0.48984233
69	0x3e5aecec	0.21379441
70	0x3f2eb6f2	0.682479
71	0x3f1cf32c	0.6130855
72	0x3f373546	0.71565664
73	0x3f2d1334	0.67607427
74	0x3f1551b3	0.5832779
75	0x3f5c4bfd	0.8605345
76	0x3edc3da6	0.43015784
77	0x3f174381	0.5908738
78	0xbf03af6f	-0.51439565
79	0x3f0b0757	0.54308075
80	0x3eac64d9	0.3367069
81	0x3f513b49	0.81731087
82	0x3eed0506	0.46292895
83	0x3f704839	0.93860203
84	0x3f1463f1	0.57965
85	0x3f465670	0.77475643
86	0x3f1f4ce4	0.622267
87	0x3eff138a	0.49819595
88	0x3f4cc712	0.7999126
89	0x3f49b158	0.7878623
90	0x3ef1605d	0.47143832
91	0xbf0c2676	-0.54746187
92	0x3f0e38b8	0.55555296
93	0x3e68a0a0	0.22717524
94	0x3f6fbd38	0.936481
95	0x3eded5d4	0.43522513
96	0x3ed8d73e	0.42351717
97	0x3dbb9c10	0.09160626
98	0x3f0a1525	0.53938514
99	0x3e9a30cd	0.30115357
100	0x3ed9587e	0.42450327
101	0x3f265f36	0.6498903
102	0x3f15bf34	0.5849488
103	0x3d9ce1cb	0.07660254
104	0x3f087e79	0.5331798
105	0x3ea6c65f	0.3257322
106	0x3f054a11	0.5206614
107	0x3f234445	0.63776046
108	0x3f2c539b	0.6731507
109	0x3f562e05	0.8366397
110	0x3f0eb3d8	0.5574317
111	0x3ec0be34	0.37645113
112	0x3eaf752f	0.3426909
113	0xbe9c04f5	-0.30472532
114	0x3f222152	0.6333209
115	0x3f59ac15	0.850282
116	0x3f1082fc	0.56449866
117	0x3f3e6537	0.7437319
118	0x3f1f9b22	0.6234609
119	0x3f5cb077	0.86206764
120	0x3f499748	0.7874646
121	0xbecabc08	-0.3959658
122	0x3f2d28e0	0.67640495
123	0x3ebd8567	0.3701584
124	0x3f12aeea	0.5729815
125	0x3e10ce0b	0.14141099
126	0x3f04b887	0.51844066
127	0x3f06c12c	0.52638507
128	0x3ef1fcf0	0.47263288
129	0x3e539f5d	0.20666261
130	0x3ea83dec	0.32859743
131	0x3f4c9c75	0.79926234
132	0x3ee3d567	0.4449875
133	0xbe652ab9	-0.22379579
134	0x3ec79c29	0.38986328
135	0x3edd3a02	0.4320832
136	0x3f1a99ae	0.60390747
137	0x3e8d0ed2	0.2755037
138	0x3ee057ec	0.4381708
139	0x3f358114	0.7090008
140	0x3ebdbd8b	0.37058672
141	0x3ef6126c	0.4806093
142	0xbca30629	-0.019900398
143	0x3efbe396	0.49197072
144	0x3da75ebe	0.081723675
145	0x3f3563af	0.7085523
146	0x3f16d5c4	0.5891993
147	0x3f56d0ca	0.83912337
148	0x3f381a4c	0.71915126
149	0x3f04a1e0	0.518095
150	0xbd83d210	-0.064365506
151	0x3f0d2b28	0.55143976
152	0x3f4ada9e	0.79239833
153	0x3f8cd230	1.1001644
154	0xbe89d840	-0.26922798
155	0xbea9a1c2	-0.33131224
156	0x3f2fcc92	0.68671525
157	0xbc0571e6	-0.008144831
158	0x3f51d208	0.8196111
159	0x3edfc7d5	0.43707147
160	0xbbc05c35	-0.005870367
161	0x3e941a45	0.28926292
162	0x3f24381e	0.6414813
163	0x3e445eaf	0.19176744
164	0x3e682e91	0.22674014
165	0x3e070809	0.13186659
166	0x3e7bd9cf	0.24594806
167	0x3e345e25	0.17614038
168	0x3d465175	0.048417527
169	0x3e457e25	0.19286402
170	0xbbc01251	-0.0058615585
171	0x3e9db73d	0.30803862
172	0x3cb60081	0.022217037
173	0x3f117691	0.5682154
174	0x3ebbc70e	0.36675304
175	0x3e230cbe	0.1592283
176	0xbdb2307a	-0.087006524
177	0x3e90033a	0.28127462
178	0x3f30787e	0.68933856
179	0x3f41aac7	0.7565121
180	0x3f11775e	0.56822765
181	0x3f190c26	0.5978416
182	0x3e5cafee	0.21551487
183	0x3e02812d	0.12744589
184	0x3e555508	0.20833218
185	0xbea9b5b6	-0.33146447
186	0x3ec85286	0.3912546
187	0x3f12fc12	0.5741588
188	0x3ed25f12	0.41088158
189	0x3de5456c	0.11194882
190	0x3e2c623f	0.16834353
191	0x3ef2ef0a	0.47447997
192	0x3eec5a23	0.4616252
193	0x3e1c9f05	0.15295036
194	0x3f10b009	0.5651861
195	0x3f0082dc	0.50199676
196	0x3ea7b749	0.32757023
197	0x3d1c0ba4	0.03809704
198	0x3e91842d	0.28421155
199	0x3e3cae5b	0.18425886
200	0x3e842584	0.25809872
201	0x3f1b7ad7	0.60734314
202	0x3f453fc0	0.770504
203	0x3f5231f1	0.82107455
204	0x3f11608d	0.5678795
205	0x3e8354e1	0.25650695
206	0xbefcbf05	-0.49364486
207	0x3eb32a20	0.34993076
208	0x3f06fbed	0.5272816
209	0x3ef2f923	0.474557
210	0x3da23cb5	0.07921735
211	0x3e6f7dc7	0.23387824
212	0x3efba4f9	0.49149302
213	0x3f070725	0.52745277
214	0x3f25cae7	0.6476273
215	0x3ec4215a	0.38306695
216	0x3f7af434	0.98028874
217	0x3e6fbe66	0.23412475
218	0xbed68014	-0.4189459
219	0x3d075fe9	0.03305045
220	0x3f0c4550	0.5479326
221	0x3ef050f2	0.46936756
222	0x3f2a8ca6	0.6662086
223	0x3eb5c5e1	0.35502532
224	0x3ec6fe17	0.3886573
225	0x3ed814af	0.4220328
226	0x3de9d1cc	0.11416969
227	0x3efadd4a	0.48996955
228	0x3ec5539e	0.38540357
229	0xbe68f7de	-0.22750804
230	0x3edffd5b	0.43747982
231	0x3d8822f5	0.066472925
232	0x3eafe11a	0.34351426
233	0x3f02389a	0.5086762
234	0x3f082a81	0.53189856
235	0x3f35510f	0.7082681
236	0x3f45710a	0.7712561
237	0x3f2be108	0.67140245
238	0x3f130ee2	0.57444584
239	0x3f39f250	0.72635365
240	0x3f2d8692	0.67783463
241	0x3f00974e	0.5023087
242	0x3e459ce4	0.1929813
243	0x3f0ca169	0.5493379
244	0x3eacc008	0.33740258
245	0x3ee4adf1	0.44663957
246	0x3f1aea05	0.60513335
247	0x3e9c187b	0.30487427
248	0x3f4a55af	0.7903699
249	0xbe931729	-0.28728607
250	0x3f6bb666	0.9207519
251	0x3e0d4795	0.13796838
252	0x3ef920cc	0.48657835
253	0x3e23c872	0.15994433
254	0x3f357d84	0.70894647
255	0x3e9300ec	0.2871164

b f4 [64]
0	0x3e5fafa0	0.2184434
1	0x3f13bf8c	0.5771415
2	0xbccce4ee	-0.025011506
3	0x3d26f741	0.040763143
4	0x3e7d0c84	0.24711806
5	0x3eeeb34b	0.46621165
6	0x3e92ef72	0.28698307
7	0x3e8fc150	0.28077173
8	0xbe2eb6e9	-0.17061962
9	0x3e983a4e	0.29731983
10	0x3e33c3e5	0.17555197
11	0x3e48d2e5	0.196117
12	0x3c19d0a1	0.00938812
13	0xbce497b1	-0.027904363
14	0x3f2042c9	0.62601906
15	0x3e87774e	0.2645821
16	0x3e4e42cc	0.20142668
17	0xbe017e77	-0.12645899
18	0x3e70f5f1	0.23531319
19	0x3d846372	0.0646428
20	0x3ed21bc4	0.41036808
21	0x3e0f0f58	0.13970697
22	0x3e7181d3	0.2358468
23	0x3d1ffcd0	0.03905946
24	0x3cb5ceae	0.02219328
25	0x3e3bd735	0.18343814
26	0x3f1f5cd6	0.6225103
27	0x3efbc7f4	0.4917599
28	0xbd2f2959	-0.04276404
29	0x3e6472b2	0.22309378
30	0x3d91ab40	0.071127415
31	0x3dc14792	0.09437479
32	0x3f0bdf2c	0.5463741
33	0x3e21485a	0.15750256
34	0x3e7ac0cf	0.24487613
35	0x3daa7855	0.08323733
36	0x3e893eca	0.26805717
37	0xbf39cb04	-0.725754
38	0xbae8e765	-0.0017769156
39	0x3e984d33	0.29746398
40	0x3d37a6d5	0.044836838
41	0x3de598bc	0.112107724
42	0x3d94fbdf	0.07274603
43	0x3e2018ce	0.15634462
44	0x3e068ddb	0.13140051
45	0x3ea1afd7	0.31579468
46	0x3e84a21e	0.25904936
47	0x3cae73f2	0.021295521
48	0x3da13b35	0.07872621
49	0xbf211b4a	-0.62932265
50	0x3e850c1b	0.25985798
51	0xbd328528	-0.04358402
52	0x3e4e51be	0.2014837
53	0x3e983109	0.2972491
54	0x3e91f4ea	0.28507167
55	0xbc97919c	-0.01850205
56	0x3de1df24	0.11028889
57	0x3defd317	0.11710184
58	0x3e3e1dff	0.1856613
59	0x3e31dd16	0.17369494
60	0x3e8d857e	0.2764091
61	0x3e968d7e	0.29404825
62	0x3e6f4d1b	0.23369257
63	0x3e4c36f9	0.19942845
